checkpoint_agent0_actor.pth (torch_old, 70766 bytes, 14 tensors)

fc1.weight f4 [128, 24]
000000 a8 ee 80 3d e5 a3 29 bd 81 a3 2c bd 9f 21 7c 3d
       0.0629552 -0.041416068 -0.042148117 0.0615555
000010 45 ca c6 bd 77 e5 4d bd 47 79 6b 3d d9 13 8b 3c
       -0.097065486 -0.050267663 0.057488706 0.016977238
000020 3c b7 84 bb 80 f3 92 bd 80 a1 19 bd 46 18 a5 bd
       -0.0040501636 -0.0717535 -0.037507534 -0.080612704
000030 34 97 b9 bd 99 6d 7e bd f4 80 08 3d a2 29 89 bd
       -0.09062043 -0.06211624 0.033326104 -0.06697394
000040 bb 3c 71 3d a8 1d 3b 3d 05 6b 0e bc c8 0a 7c 3d
       0.058895808 0.04568258 -0.008692508 0.06153372
000050 8c 44 27 3d 9d 5f cd bd b0 4d 45 3d a1 8c 36 3d
       0.040836856 -0.100280024 0.04816979 0.044567708
000060 73 95 94 bd b0 14 f2 bc d0 34 b3 3b c4 44 7d bd
       -0.07255068 -0.02955088 0.005468942 -0.061833158
000070 38 7c 99 bd c5 40 42 be 87 fd 84 3c a4 6a 40 bd
       -0.07494396 -0.1897002 0.016234173 -0.0469767
000080 c9 6f a8 3c 4c 8b 53 be 6a 44 05 3d 1d 5d 8a bd
       0.020561116 -0.20658606 0.032535948 -0.06756041
000090 f6 48 01 3d 1b 5f 0b be 03 c3 fa bc 02 81 f2 bb
       0.03156372 -0.13610499 -0.030610567 -0.007400633
0000a0 15 0e 03 bd ac 42 07 be 45 4c 80 bb 4b de 84 bc
       -0.03199585 -0.13209027 -0.003915342 -0.016219279
0000b0 0e 2d b2 bc 69 35 ca 3c a5 c1 57 bb 08 03 44 bd
       -0.02175 0.024683671 -0.0032921818 -0.047854453
0000c0 db 05 0a bb ef fc 89 bd 27 e2 1a 3c a9 41 1c 3d
       -0.002106062 -0.067376964 0.009453333 0.038148556
0000d0 62 ae c6 bc b9 a5 57 bd 2c 92 68 bc 2a 52 18 bd
       -0.024253074 -0.05264828 -0.014195006 -0.037187733
0000e0 cb 15 b3 3d 36 c0 d5 bd e8 7e 5e 3b cf 87 d6 bd
       0.08744391 -0.10437052 0.0033950154 -0.10475122
0000f0 96 82 c3 bd 2c 73 fe bd eb c7 80 bc 1a e5 a5 3c
       -0.09546392 -0.12424311 -0.015720328 0.020250846
000100 64 e8 cc 3d 70 31 7d 3c 4f be fd bc 76 de 2d 3c
       0.100052625 0.015453681 -0.030974535 0.010612121
000110 e7 a3 b3 bd c1 cc 17 3c 11 3d ce 3c 5e 2a 58 bc
       -0.08771496 0.009265126 0.025175603 -0.013193695
000120 40 ef 8e 3c 4b 15 13 3e b8 25 7a 3d d7 50 36 3d
       0.017448068 0.14363591 0.061071128 0.04451069
000130 f1 da 24 3c c4 76 de 3c f0 37 b5 bd df 58 1d bd
       0.010061965 0.027156241 -0.0884856 -0.038414832
000140 b1 ae 23 3c 8e 7b c4 3d 59 da 7e bb c3 3b ee bc
       0.00999038 0.09593879 -0.003888747 -0.029081231
000150 52 49 96 bd 73 1c e0 bb 05 03 02 bd ed 13 d5 bc
       -0.073382035 -0.006839329 -0.03174116 -0.026010478
000160 6f 2c b4 3d 03 4a 85 3e b6 f7 8a 3d 15 2c 24 bb
       0.087975375 0.2603303 0.06785528 -0.002505069
000170 7f 96 06 be 92 4e 94 bd e9 95 6e bd d6 7a 20 bc
       -0.13143347 -0.072415486 -0.058248434 -0.009794911
000180 39 0e de bd df 68 ba 3d d9 aa 06 bd b3 d8 16 bd
       -0.108425565 0.09102034 -0.032877777 -0.036827754
000190 70 0d 6b 3d 91 ee 6b bc e6 3c 29 bd 7b 18 53 bc
       0.057385862 -0.01440014 -0.041317843 -0.012884255
0001a0 47 ee 9a bd 29 66 06 bd 31 19 81 bd 14 5f 1b bb
       -0.07564979 -0.03281227 -0.06303633 -0.0023707794
0001b0 66 0f b5 3d 28 fb 7a bb ae 2d 35 3d d2 3c de bc
       0.08840828 -0.0038296673 0.044233017 -0.02712861
0001c0 09 db 13 be 06 eb 98 3d 5b 89 10 3d 3c 96 4d 3d
       -0.14439024 0.07466702 0.035287242 0.050192103
0001d0 0f 60 26 bd 73 10 1b 3e ec 0d 9c 3c c2 ff 2b 3d
       -0.040618952 0.15142994 0.019049607 0.041991957
0001e0 a1 b9 ba bc db b7 37 bd 57 1d 02 3c 2c 7e f3 3b
       -0.022793593 -0.044853073 0.0079415655 0.0074308123
0001f0 70 7f c2 bc 8b ce 8f bb 33 30 2a 3d 89 d1 73 3d
       -0.023742408 -0.0043886355 0.041549873 0.059526
000200 6d 38 a9 bd eb 58 11 bd 25 c9 6d 3c 3d 0b b7 bd
       -0.082627155 -0.03548519 0.014513289 -0.089376904
000210 78 6c e1 bd 98 39 42 bc 91 ed 5c bd 78 0d 9c 3c
       -0.11007017 -0.011854552 -0.0539375 0.019049391
000220 af 30 36 ba 90 c0 ee bd 08 70 8a 3c 04 7b 03 bd
       -0.00069500034 -0.11657822 0.016899124 -0.03209974
000230 4a b7 b5 bd eb e3 46 be ac 55 71 bd 92 7b 40 bd
       -0.0887285 -0.19422881 -0.058919594 -0.046992846
000240 86 fc c4 3d 82 1d 04 3e 08 45 2d bc b2 52 69 bc
       0.096184775 0.12901881 -0.01057554 -0.0142409075
000250 9c 5a 6e bd 94 c9 46 3e f4 68 52 3c 57 6d 57 3d
       -0.05819188 0.19412833 0.012842406 0.05259451
000260 59 e3 df 3c dc fd 37 bd 9f 26 c0 3b 9c 47 c5 bc
       0.027330087 -0.044919834 0.005863979 -0.024081998
000270 cf 4f 21 3d b5 7f 27 3e 77 b7 1e 3b 82 e0 d0 bd
       0.039382752 0.1635731 0.002421824 -0.101990715
000280 2d d4 35 bb 16 91 c0 bc 11 1b a7 3d 92 e3 07 3e
       -0.0027744875 -0.023506682 0.081594594 0.13270405
000290 39 02 b0 3d 0a 06 02 3e e9 74 99 bd 35 42 b3 3d
       0.08594174 0.12697616 -0.07493002 0.08752862
0002a0 bd b3 90 3c a9 6f d6 3d 5f e3 3f bc 00 b4 9e bd
       0.01766383 0.10470516 -0.011711924 -0.07749176
0002b0 53 28 b3 3a 98 28 cc bd 58 45 e9 3d 5b c6 ee 3c
       0.0013668634 -0.0996868 0.113901794 0.029147318
0002c0 6a 01 dc bc 7b 34 f9 3d 9f 9c 76 bd 08 76 dc 3c
       -0.026856143 0.12168213 -0.06020796 0.02691175
0002d0 f9 b4 d6 bd ce f4 b1 ba 21 5b 9a 3d d7 24 9c bd
       -0.104837365 -0.0013576986 0.07536913 -0.07624214
0002e0 7c ed ab bd eb 55 6a bc a5 2e 74 bc 00 97 2e 3d
       -0.08394906 -0.014302711 -0.014903699 0.042624474
0002f0 c3 04 ca 3c c2 49 be 3d 86 6e 07 3d 35 8d 68 3c
       0.024660474 0.09291412 0.033064388 0.014193823
000300 34 0e 0b 3d b8 cf 65 bd 03 bd 75 3d 1a 82 a9 bc
       0.033949092 -0.0561063 0.05999471 -0.02069192
000310 59 fb 14 bd a8 86 97 bd 28 c5 8e 3d 56 e9 a6 3d
       -0.036372516 -0.073987305 0.06971198 0.08149974
000320 50 f3 d4 3d 66 1c 92 bd 21 d6 f2 3a 8a 4b 98 3d
       0.10397971 -0.07134323 0.001852695 0.07436283
000330 b3 24 c0 bd dc 4d c4 bd d2 72 43 bd 76 2f 8e bd
       -0.09382 -0.09585163 -0.047716923 -0.06942646
000340 3d 54 a6 bc 29 a3 ff bc a1 61 ad 3b 8b 31 06 3c
       -0.02030384 -0.03120573 0.0052911793 0.008190523
000350 75 3f be 3c 3b ee 54 be 70 48 5d 3b 1c 3d 05 bd
       0.023223618 -0.20794003 0.00337651 -0.03252898
000360 99 fc d3 bd 10 10 aa 3d f6 29 13 3d bb a2 d6 3c
       -0.103509136 0.08303845 0.03592869 0.026200643
000370 5a a8 8c bd 8d 57 84 be 72 0e 1a bd e6 e4 f2 3c
       -0.06868048 -0.25848046 -0.037611432 0.029650163
000380 b0 ed 92 3d 2f fb f1 3d a8 d3 d8 3c 6a 91 68 3d
       0.071742415 0.118154876 0.026468113 0.056779303
000390 ee f9 2c bc 70 a4 f0 bd f0 d8 f8 bc de 27 6d 3d
       -0.010557635 -0.11750114 -0.030376881 0.05789935
0003a0 30 58 60 3d 0e 91 03 3e c9 96 87 3d eb 0e 80 bd
       0.054771602 0.12848303 0.06620557 -0.062528454
0003b0 c3 6a 8b 3c e0 8c 37 bd dd 85 64 bd b4 fd 49 bd
       0.017018681 -0.044812083 -0.055791724 -0.049314216
0003c0 9d a6 00 3e e5 fd d7 bc 2a 8f 81 bb 5b c1 ee 3c
       0.12563558 -0.026366184 -0.003953834 0.029144933
0003d0 b8 cd ff 3d ad bf f5 3d 22 1d 8d bc 3e 23 59 3d
       0.124904096 0.1199945 -0.017225806 0.053012125
0003e0 98 23 8c 3d 25 87 e3 3d 72 7a 68 bc 3d f7 1c bd
       0.068427265 0.11109761 -0.0141893495 -0.038321722
0003f0 29 dc 76 3d 14 3c aa 3d b5 c6 d4 bb 23 08 42 3b
       0.060268555 0.0831224 -0.0064934143 0.00296069

fc1.bias f4 [128]
000000 e1 69 74 3d ab a6 5f be fb d5 6e be 8b 53 4b bd
       0.059671286 -0.21840923 -0.23323815 -0.04964022
000010 be 7e 5b bc 6e 55 15 3e 03 6e 97 3d a4 b7 78 bd
       -0.013396917 0.1458337 0.0739403 -0.06072201
000020 0f c2 b5 bd c5 dc 4d 3d 11 65 6a be fc 11 80 be
       -0.08874904 0.05025937 -0.22890116 -0.2501372
000030 df 98 c2 bd 9b d3 55 be 99 1b 8b bd ef 97 85 3d
       -0.09501814 -0.20881502 -0.06792373 0.0652312
000040 44 55 bc 3d b6 60 17 be d0 01 f7 bd ca 3a f7 bd
       0.091959506 -0.14782986 -0.120608926 -0.1207176
000050 60 71 79 bd 95 fc 94 3d 55 40 c4 bd 20 a1 2e bd
       -0.06089914 0.07274739 -0.09582583 -0.04263413
000060 f7 0d e7 3d 3f fe c1 be e1 0d d5 be d3 be e5 bc
       0.112819605 -0.37889287 -0.4161215 -0.028045094
000070 4f 7b 08 be f3 00 c2 bd 31 46 1f be 1e 85 a9 3d
       -0.13328288 -0.09472837 -0.1555412 0.08277343
000080 a9 11 d2 3d 4d c0 b3 3d 23 90 10 3c f0 14 1c be
       0.10257275 0.08776913 0.008823427 -0.15242362
000090 7e 49 c9 3c 64 13 99 3d ff 8a 03 be 5c 3e a4 bd
       0.024571177 0.074744016 -0.12845992 -0.080197066
0000a0 94 c4 0b 3b 35 76 82 bc 22 8d 06 3e d1 8e ff bb
       0.0021326886 -0.015925506 0.13139775 -0.0077990075
0000b0 97 c7 bd bd 46 aa 57 be aa 9b 82 3e 3d 85 6d be
       -0.09266584 -0.21061048 0.25509387 -0.23195358
0000c0 66 d8 d2 bc 75 d4 93 3c ed 41 5a be 04 a2 44 bc
       -0.025737952 0.018045643 -0.21314211 -0.012001518
0000d0 c9 6f 23 be 3b c7 37 be fa 73 1b bd 16 9d 4b 3c
       -0.15960611 -0.17947094 -0.0379524 0.012427589
0000e0 50 bd 30 be c5 8b 60 3e e6 1a 94 3d 38 6d b5 be
       -0.17259717 0.21928318 0.07231693 -0.3543489
0000f0 28 48 5f be 1a f0 11 3e 30 48 1a 3e 1b c5 a0 3d
       -0.21804869 0.14251748 0.150666 0.07850095
000100 23 fb cc 3d 40 26 62 be e8 8a 10 3d ed a3 e8 bd
       0.10008838 -0.22084904 0.03528872 -0.11359391
000110 3e a2 96 bd 6f 37 71 be 4e b9 1a 3d 6c 15 80 39
       -0.07355164 -0.23556302 0.037774377 0.00024430023
000120 4b 1e de bd 1d 9b 09 be 8a f9 01 3d c2 61 1a be
       -0.10845622 -0.13438077 0.03173212 -0.15076354
000130 7f d4 ca bd 66 e2 10 be a3 77 05 3d 6c 88 f4 3c
       -0.09903812 -0.14148864 0.032584798 0.029850207
000140 ce 8e 44 bd 92 d2 e1 3d 28 1b 62 bd aa d0 a4 3d
       -0.04798775 0.11026491 -0.05520168 0.08047612
000150 f2 39 42 bd 9d 6e c8 3d 49 ad 1a bd 3a 08 94 be
       -0.047418542 0.09786723 -0.037762914 -0.28912526
000160 d5 76 45 be eb d0 b5 bb e1 b9 08 bd b3 53 08 bc
       -0.19283612 -0.0055485866 -0.033380393 -0.008320737
000170 b1 48 0d be d0 20 c0 bd 2d 1a 31 3e f0 16 19 bd
       -0.13797261 -0.093812585 0.17295142 -0.03737539
000180 44 c7 74 be 4f 0a 10 be ae 1c 05 be 18 0d 58 be
       -0.23904139 -0.14066432 -0.12999222 -0.21098745
000190 8c 4f 19 bd 71 b3 9d 3e 90 42 7b be e6 89 cf 3c
       -0.037429377 0.30800965 -0.2453711 0.02533431
0001a0 05 34 71 be b1 a1 36 3d 1f 08 67 3d b1 dc 0c 3e
       -0.23555 0.044587795 0.05640423 0.13756062
0001b0 cc 76 ea bd 76 61 0a bd 30 6e 68 bd dc 55 74 be
       -0.1144844 -0.033784352 -0.056745708 -0.23860878
0001c0 05 d9 b6 3d 5c d2 e1 bc 8c 7c c6 bd 88 7b 9e bc
       0.08928112 -0.027566127 -0.09691724 -0.019346014
0001d0 52 e8 7c bd 3f 71 0c 3d b2 54 98 be 5b 37 1a 3d
       -0.061744995 0.034287687 -0.29752117 0.037650447
0001e0 70 6b 7d 3e f2 64 b5 3d 70 29 8e be 92 f9 20 3e
       0.24748015 0.088571444 -0.2776599 0.15720204
0001f0 f2 f2 5c be 88 2d f1 3d b8 d0 21 3e a8 8d 8c 3d
       -0.21577051 0.117762625 0.15802276 0.06862956

fc2.weight f4 [100, 128]
000000 c3 f4 4d 3d c7 2b cc 3d ac 29 2f 3e db 12 91 3e
       0.05028225 0.09969287 0.1710574 0.28334698
000010 c8 ba 18 3d d5 1f 07 3e e3 0b 31 bd ab 36 10 be
       0.037287503 0.13195737 -0.043224227 -0.14083354
000020 63 13 58 bd fe 25 5b 3d d4 f6 2d be 61 f8 90 bb
       -0.052752864 0.05350303 -0.16988689 -0.0044241403
000030 f1 be 82 3d ab 36 8b bd 47 3d c7 bc 17 ff 35 3d
       0.063840754 -0.067975365 -0.024321212 0.044432726
000040 49 74 09 be 50 17 4c bd ad ae e9 3d 56 22 ab bc
       -0.13423266 -0.04982692 0.1141027 -0.020890396
000050 c1 4d 1d 3e dd e4 af 3d 0a d8 2a be 30 bb 8a 3d
       0.15361692 0.08588574 -0.16683975 0.067739844
000060 a5 a4 a4 3d 81 e5 82 bc 68 4f ac 3e 6d 30 3e 3d
       0.08039216 -0.015978577 0.33654332 0.0464329
000070 03 d1 77 bd 22 1a 31 bd a5 6b 26 be d4 73 a7 bd
       -0.060502063 -0.043237813 -0.16252 -0.08176389
000080 b7 85 1b 3d 69 90 4f 3c f8 c6 33 be 7f 67 64 3d
       0.037969317 0.012668707 -0.1755637 0.055762764
000090 51 78 e2 3c 14 d3 3a 3e 11 89 3e bd 0c 06 ae 3d
       0.027645262 0.18244582 -0.046517435 0.08497247
0000a0 96 a2 59 3e 7f 64 c1 3d f7 36 7c bd b8 fa 26 be
       0.21253428 0.09442996 -0.061575856 -0.16306579
0000b0 d3 0f 13 be 36 72 51 3d 43 22 bb 3d 8a eb 18 bd
       -0.14361505 0.05113431 0.09137394 -0.037334003
0000c0 59 22 f0 3d 1b fe 31 3e 42 9a 8d bd bd 66 90 bd
       0.11725301 0.1738209 -0.06914188 -0.07050846
0000d0 f8 2c 68 bd 0f 0d ae 3c e4 6f 1a 3e e1 a7 d3 bd
       -0.05668351 0.021246461 0.15081745 -0.10334755
0000e0 73 4f 8a 3e ae 77 1b be c1 75 2a 3c 52 09 7c 3d
       0.2701374 -0.15182373 0.010404051 0.061532326
0000f0 bb f8 b2 3e f3 64 b4 3d 72 3d 75 be 8c 72 18 3e
       0.3495539 0.08808317 -0.23949221 0.14887446
000100 1d dd 82 3d c7 42 6d be fb 17 29 3e 23 73 6a 3d
       0.0638983 -0.23170005 0.16513054 0.05723871
000110 ff 1a 4a 3e 76 95 2e 3e 2a 79 f8 3d 8b db 24 be
       0.1973686 0.17049202 0.12132485 -0.16099374
000120 81 bf 52 3e db 20 92 3d 64 68 25 3e 1d 25 9b 3e
       0.20580865 0.07135173 0.16153103 0.30301753
000130 1d b4 a1 3b 97 92 8b be 9f a4 cb bc fa bd f0 bd
       0.0049348013 -0.27260277 -0.02485877 -0.11754985
000140 df c3 67 3e 90 fe 8b 3d 5a cd 64 3d e3 16 eb 3c
       0.22633313 0.06835663 0.0558599 0.028697437
000150 75 96 88 bd 9e c2 d0 bb 84 3f b2 3c a1 bd 29 be
       -0.066693224 -0.0063708564 0.021758802 -0.16576244
000160 3c 0a d4 3d c2 e7 5a 3b f0 c7 c0 3d 58 7d 71 3e
       0.103535146 0.0033402299 0.09413135 0.23582971
000170 8b 02 91 be 5b b0 38 3e a0 9b 88 3d 12 4a 09 3e
       -0.28322253 0.18036024 0.06670308 0.13407162
000180 a1 79 21 3e a6 ca 0c bb 47 40 94 bd 06 36 6a 3d
       0.15769054 -0.0021483093 -0.072388224 0.057180427
000190 e5 4f ae bd 00 7f e1 3d b4 29 44 be 33 c5 3c bd
       -0.085113324 0.110105515 -0.19156533 -0.0460865
0001a0 74 a8 0d 3d 1e 56 05 be c7 ec f9 3c 38 4a 61 3d
       0.034584478 -0.13021132 0.030508412 0.05500242
0001b0 e2 e5 30 3e c2 f7 c2 3c 84 b6 d9 bd 47 76 ee 3c
       0.17275193 0.02379978 -0.10630515 0.029109133
0001c0 58 9e a0 3d 71 98 94 3d 48 64 ac bd 96 f2 43 bd
       0.07842702 0.072556384 -0.08417565 -0.04783877
0001d0 40 50 b0 bd 32 e6 a8 bc ea 02 8c be b7 2c 66 3d
       -0.086090565 -0.020617578 -0.27345973 0.056194987
0001e0 ef 72 a8 bd 08 e8 c5 bd 1d d1 51 be 20 1b 2a be
       -0.08225047 -0.09663397 -0.20489927 -0.1661191
0001f0 0e 8b 79 bc 02 6d 65 be 3c 4e 71 3c 44 63 05 be
       -0.015230907 -0.22404864 0.014728125 -0.13026148
000200 30 30 28 3d 6a 51 cc 3b b8 3b 00 be cc 58 9f bb
       0.04106158 0.0062352913 -0.12522781 -0.0048628803
000210 56 49 d4 3d df ff 26 3d 87 05 e6 bd 31 13 2e 3e
       0.1036555 0.04077136 -0.11231523 0.16999508
000220 6a 50 39 be 96 7e ff bd 7e da 05 bd f0 29 9b bd
       -0.18097082 -0.12475316 -0.032679074 -0.07576358
000230 63 a0 75 3e 2e 0b 7c bd bc db 68 3e 41 4b 60 3d
       0.23986964 -0.0615341 0.22740072 0.054759268
000240 a3 f5 26 bd 65 70 64 3e 2b c9 19 3e b3 5b 3b 3d
       -0.0407616 0.223085 0.15018146 0.045741748
000250 bc 7e 5b be 08 76 d1 3d 0f 9c 08 be 58 8f e3 bd
       -0.21435064 0.10227591 -0.13340782 -0.11111325
000260 e7 66 8c be 1d 8c c0 3c 45 df 95 be 62 03 cc 3d
       -0.27422258 0.023504311 -0.29271904 0.09961583
000270 dd 95 28 39 eb 82 38 bb ba 3d 05 bd 90 25 f2 3d
       0.00016077557 -0.0028154205 -0.03252957 0.11823571
000280 f8 41 eb bd 56 58 75 3d b5 0e 76 3d 6b c8 32 bd
       -0.11487192 0.059898697 0.06007262 -0.043648165
000290 7e 64 2d be 88 ae 3b 3e 9d d8 3f bc 4c ae 28 3e
       -0.16932866 0.18328297 -0.0117093595 0.16472739
0002a0 92 98 ce 3d 5e dd 6f bc b0 e9 ca 3d 46 0b ae ba
       0.10087694 -0.01464018 0.099078536 -0.0013278506
0002b0 1a 5c a7 bd 46 30 b7 bd 2b 07 b1 bd 73 88 27 3e
       -0.08171864 -0.08944754 -0.08643945 0.16360645
0002c0 ea 6b 05 be f8 ca 11 3b 82 11 cf bc 7a 79 06 be
       -0.13029447 0.0022246223 -0.025276903 -0.13132277
0002d0 c7 57 62 be 11 06 71 bd 73 77 ad bd 0f 5e 46 3d
       -0.22103797 -0.058843676 -0.08470049 0.048429545
0002e0 2f ba 99 3d 21 27 6b bd fe 94 1e bd df c6 c7 bd
       0.07506215 -0.057410363 -0.03871631 -0.097547285
0002f0 48 18 66 3c bf ed 64 bd c0 21 22 3e 83 2d 20 3e
       0.014043875 -0.055890795 0.15833187 0.15642361
000300 ac ce cc 3d b4 6a 92 3e bc 3a 33 3d 3e 8c f4 3a
       0.10000357 0.28597033 0.043757185 0.0018657518
000310 c2 22 08 bc 0e 1b b1 3d f1 ea c3 3d 02 73 c1 3c
       -0.008309068 0.086477384 0.09566296 0.02361441
000320 6c 65 af 3d 14 f5 8a 3d db 8e 8b 3c f7 9a 13 be
       0.085642666 0.06785026 0.017035892 -0.14414583
000330 fc f6 83 3d c5 4b 82 3c 19 73 37 be 99 74 6e 3e
       0.06443593 0.01590527 -0.17915 0.23286666
000340 20 de 76 3d ac 83 80 3e ef e9 ef 3c 23 10 8b bd
       0.06027043 0.25100458 0.029286353 -0.06790187
000350 28 e0 6a 3d 40 89 4c bc 9a 46 de 3d 6e 57 70 be
       0.05734268 -0.012483895 0.1085331 -0.23470852
000360 2f e3 16 bd 66 09 f2 3a cd 87 3e be cf 04 60 3d
       -0.036837753 0.0018465936 -0.18606491 0.054692086
000370 47 72 9d 3d 4d b4 04 be 21 75 d2 bd f0 57 1b 3e
       0.07687812 -0.12959404 -0.10276247 0.15170264
000380 7b aa f2 3c f8 72 70 3d f9 0a d0 bb fb 25 e0 3d
       0.029622307 0.058703393 -0.0063489643 0.10944744
000390 b5 71 74 3e 71 da 33 be 1f ac fd 3c d6 68 47 3d
       0.23871501 -0.17563798 0.030965863 0.048683964
0003a0 f8 49 94 3d a3 0b 02 be ce 37 3d 3d 8f 8c 23 3d
       0.07240671 -0.12699752 0.046195798 0.03992897
0003b0 a5 da 4f 3d 24 20 46 be ef 05 dc bd 71 45 57 3d
       0.050745625 -0.19348198 -0.10743319 0.05255646
0003c0 19 af ec bd 08 72 24 bd ac fb 57 bd b9 45 f2 bc
       -0.11556835 -0.04014781 -0.052730247 -0.029574262
0003d0 72 82 af 3c 7d 5a 4c bc 05 3b e7 bd 01 20 4d 3e
       0.021424506 -0.012472746 -0.11290554 0.2003174
0003e0 f7 3c c2 bd 2b c2 db 3c dd 9d 58 bc d5 25 40 be
       -0.09484284 0.026825985 -0.013221231 -0.18764432
0003f0 bd 1b 0f bd 8a 66 b9 bd 97 5d cb 3c dd b9 e2 bd
       -0.034938563 -0.09052761 0.0248249 -0.11070607

fc2.bias f4 [100]
000000 92 e4 ce bc ec 19 6c 3b 50 a7 8b bc fd d2 f4 3a
       -0.025255475 0.0036026193 -0.017047554 0.0018678602
000010 ea 43 18 3d ad 91 77 3c d3 0c 95 bd 4d 34 d3 bd
       0.037174143 0.015110415 -0.07277837 -0.1031271
000020 cb 44 e0 3d f4 9d cf 3c 65 98 9b 3d 08 f7 c4 3c
       0.10950621 0.025343873 0.07597426 0.024043575
000030 e6 1b 3f 3d 89 cc 18 3d ef 6d 00 3e 7a 78 b0 3d
       0.046657465 0.037304435 0.12541936 0.08616729
000040 85 d9 2b 3e 35 52 e4 3d 25 fe b6 3b 9c e5 2e be
       0.16782196 0.11148492 0.0055844956 -0.17079777
000050 98 a8 db 3d af e7 33 3e eb b8 1a 3e e3 0d 47 bd
       0.10725516 0.17568849 0.15109603 -0.048597228
000060 85 a5 a5 3d 06 f7 bd 3d 6e c5 cb 3d d8 d5 59 3d
       0.08088211 0.092756316 0.09949766 0.053182453
000070 b9 6f 3c 3c 02 11 a0 3d 76 11 19 3e f5 a4 d0 3d
       0.011501246 0.07815744 0.14948067 0.10187713
000080 08 83 03 bd 22 81 f2 3d 4b 37 7a 3d 59 3a 9e 3d
       -0.032107383 0.118410364 0.061087888 0.07725973
000090 ce a8 c2 3d 41 3e 36 3d d5 f4 0f bd bb 48 59 3d
       0.09504853 0.044492964 -0.0351456 0.053047877
0000a0 c8 a9 eb 3d 84 bd e4 3d 9a 8c db 3d 68 c5 46 3e
       0.115069926 0.1116896 0.10720177 0.19411242
0000b0 b6 9f 21 3e af ce 06 3e b6 94 08 be 23 a8 ba 3d
       0.15783581 0.13164781 -0.13337979 0.09114101
0000c0 bb 68 d3 3d 25 10 93 3d e1 ea f6 bc de e2 37 bc
       0.1032271 0.07180814 -0.030141296 -0.011223523
0000d0 ee 33 28 3b 8d cf 67 bd a0 e4 ad 3c 43 af a3 bc
       0.0025665718 -0.05659442 0.021227181 -0.019981032
0000e0 88 26 97 3d c6 3a 4d 3d 29 55 eb bc 44 a7 34 3d
       0.07380396 0.05010488 -0.028727131 0.04410483
0000f0 ed a2 b2 3d 35 26 05 3e 4a b0 67 bd c2 f2 10 3e
       0.08722482 0.13002856 -0.056564607 0.14155105
000100 1f 57 f1 3d 28 6d 8b 3c 98 7a 0b bd 7a 94 84 bc
       0.11784195 0.017019823 -0.03405246 -0.01618408
000110 21 b2 01 3e 89 39 48 3d a0 c5 ad bc 94 c7 d9 3d
       0.12665607 0.048882995 -0.021212399 0.1063377
000120 4d b5 a8 bd 92 63 dc 3d 22 a2 5b 3d 73 30 e9 3d
       -0.082377054 0.10761179 0.05362142 0.11386194
000130 32 21 29 3e cc 69 08 3e 74 ff 2d 3d 85 96 ec 3c
       0.1651657 0.13321608 0.042479947 0.028880367
000140 09 7e 8d bc 6b 06 e0 3d 9a df 0a 3e ca 59 7e 3d
       -0.017272012 0.10938724 0.1356186 0.06209735
000150 53 f4 d2 3c 05 bf a4 3d 9c c5 7d 3d cb 2e c4 3c
       0.025751268 0.080442466 0.061956033 0.023948094
000160 06 18 66 bc df b5 49 bd d6 d0 70 bd 38 22 c5 3d
       -0.014043814 -0.04924571 -0.05879291 0.09625667
000170 9e 79 1f 3e 3e c5 e0 3b e5 8c ca 3d 4b a8 c7 bc
       0.15573737 0.0068594506 0.09890155 -0.02437224
000180 0d 63 c2 3d 3f ef 7e 3d 15 28 dc bc 50 db 25 bd
       0.09491549 0.06223988 -0.026874581 -0.040492356

fc3.weight f4 [2, 100]
000000 a6 fe 4e be 37 10 43 3e 91 c3 aa 3d 27 a4 cb 3d
       -0.20214328 0.19049154 0.083380826 0.09943419
000010 47 97 a5 3d 38 26 33 bd 95 89 14 3e d9 82 35 3c
       0.080854945 -0.04373762 0.14505608 0.01107856
000020 bf b3 ee 3d 4e 3f f2 3d ba 1d 17 be ff 4a 0d be
       0.116553776 0.11828481 -0.14757434 -0.1379814
000030 c0 89 5d 3d ec 24 f3 3d 5c a5 35 be 36 70 7c bd
       0.054086447 0.11872277 -0.17738861 -0.06163045
000040 27 85 dc bd e0 ac 88 bd aa 1c a5 3d b0 7a 35 3e
       -0.10767584 -0.06673598 0.08062108 0.17722583
000050 9d f5 25 be 35 5d 3b 3e 6d 3a 21 3e 87 1d 42 3c
       -0.16206975 0.18297274 0.15744944 0.01184786
000060 75 13 17 be 36 3e 15 be 2f 4d 1a 3e 33 9d a7 bd
       -0.14753516 -0.14574513 0.15068506 -0.0818428
000070 9f b1 5e 3c ab ea ec 3d 04 09 62 bd 0c b7 36 3e
       0.013592153 0.11568197 -0.05518438 0.17843264
000080 cc e7 17 3d 63 d2 ec 3d f4 69 4c be 8d f7 b9 bd
       0.037086293 0.115635656 -0.19962293 -0.0908042
000090 9a 58 3a be 59 e0 ee 3d da 2b 83 3e 9a 5c 0c 3e
       -0.18197861 0.11663885 0.25619394 0.137072
0000a0 4a 40 2a be 3c df 3c 3b c0 2c 82 3c f0 a8 e3 bd
       -0.16626087 0.0028819581 0.01589048 -0.11116207
0000b0 db 8a 3d be ae b8 5c bd bd e4 3f 3e 94 71 f0 bd
       -0.1851 -0.05388706 0.187396 -0.11740413
0000c0 fe 1a a3 3c 6c 6b ac bd 73 8b 6d 3d 89 cf 06 3e
       0.019910332 -0.084189266 0.057994317 0.13165106
0000d0 75 d4 00 3e 53 a4 71 3e 83 fa 64 3d 8d 1b a6 3d
       0.12581046 0.23597841 0.05590297 0.08110724
0000e0 c7 27 ea bd 52 4c 3e be c2 32 16 3e 55 d8 31 be
       -0.11433368 -0.18583801 0.146678 -0.1736768
0000f0 4d 1e d5 3d 2c 42 17 3e fa ad ff 3d 86 8c 94 3d
       0.1040617 0.14771336 0.12484355 0.07253365
000100 08 a2 ca bd 36 1f 33 be 2e 5a 29 3e 38 97 db 3d
       -0.09894186 -0.17492375 0.16538307 0.10722202
000110 01 61 0d be 21 95 06 be 23 87 14 3e 19 e5 23 3d
       -0.13806535 -0.13142826 0.14504676 0.040013406
000120 44 85 3f 3d 12 1f 1b 3e d8 8a 3d bd 4a 1a a9 3d
       0.04675795 0.15148571 -0.04627499 0.08256967
000130 1a a8 84 bd d3 44 4c be e1 37 fd bd db d3 ee 3d
       -0.06477375 -0.1994813 -0.12364174 0.11661502
000140 2f b1 09 3e 5f 0f c6 bd 46 20 f4 bd 58 15 90 bd
       0.13446496 -0.096709006 -0.11920218 -0.07035321
000150 81 8f fa bd ae 34 bf bd 9e 89 04 3d 55 bc 1c be
       -0.122344024 -0.0933622 0.032357804 -0.15306218
000160 70 ea d9 3d e5 56 42 3e f0 8a f5 3d 81 20 04 be
       0.106404185 0.1897846 0.11989391 -0.12903024
000170 7d fa 27 be c8 49 04 3e c7 f9 fe 3d e8 84 b7 ba
       -0.16404147 0.1291877 0.12449985 -0.0014001401
000180 5c fb 0f 3d 52 7b cc bc 7c 81 6b 3e 29 fa da 3d
       0.035151824 -0.024961147 0.22998613 0.106922455
000190 e8 40 c9 3d 94 2a b6 3c 4b 24 b4 bd 34 94 1c 3e
       0.09826833 0.0222371 -0.08795985 0.1529091
0001a0 43 ac 2b 3d b3 ce 48 3e 8b a8 55 bb d0 07 0d 3f
       0.04191233 0.196101 -0.003260168 0.55090046
0001b0 a8 b3 41 bd ef ce f0 3d bd 71 7b 3b 89 14 5a be
       -0.047290474 0.117582195 0.0038367354 -0.21296896
0001c0 94 4b e5 3c 3a 90 ee 3c fd be 96 be 77 76 53 be
       0.02799014 0.029121507 -0.29442587 -0.2065066
0001d0 00 40 17 be 46 6e 4c 3e 78 22 03 3e 4d b8 a0 3e
       -0.14770508 0.19963941 0.12806118 0.3139061
0001e0 26 24 90 3d 19 6d 71 3e b5 af c8 3d 89 3b d7 3e
       0.07038145 0.23576774 0.097991385 0.4203761
0001f0 f3 c9 5b 3d f4 16 59 3c 1b 3f f6 3d f9 ea 7f 3e
       0.05365939 0.013250101 0.12023755 0.24991979
000200 d6 01 f1 3e c0 17 81 3d e1 a1 77 be ea 63 b6 3d
       0.47071713 0.06303358 -0.24182846 0.08905776
000210 96 80 ba 3e 77 15 20 3e 96 db db be 3d c2 87 3d
       0.36426228 0.15633188 -0.42940968 0.06628845
000220 cf 8a 29 be 32 de 6b 3c 74 f6 58 be 8a 50 e8 bc
       -0.16556858 0.014396237 -0.21187764 -0.028358717
000230 b7 69 58 be 8f 3d 2b be 31 97 63 be 5a 0b 2b 3e
       -0.21134077 -0.16722701 -0.22225644 0.16703549
000240 20 bd 23 3e 57 33 67 be 25 7d 49 3d fc 0e 3d be
       0.15990114 -0.22578178 0.049191613 -0.18462747
000250 ec 64 36 be 73 d6 6d be 6b fb 96 3e 35 92 2a be
       -0.17811936 -0.23226337 0.29488692 -0.16657336
000260 3d a0 de bc 82 80 1b 3e 2a 86 cc be 6c 63 bd 3e
       -0.027176017 0.1518574 -0.3994611 0.36989915
000270 05 f9 8e 3d 88 81 83 bb 2f de 5b 3e 14 20 77 3e
       0.069810905 -0.004013244 0.21471475 0.2413333
000280 21 ae 33 3e a8 22 00 3e 95 2a f3 bd 44 f0 0f 3e
       0.17546894 0.1251322 -0.11873356 0.14056498
000290 d1 a5 29 3e 04 71 0d 3e 32 97 3b 3d a0 ef b3 be
       0.1656716 0.13812643 0.045798488 -0.35143757
0002a0 af 3f c2 3d 2b 43 0a 3e b3 07 fb bd ef f6 66 be
       0.09484803 0.13502185 -0.12257328 -0.22555135
0002b0 00 1a 80 3e fe 49 4e 3e 50 b0 81 3e a4 ff 6a be
       0.25019836 0.20145413 0.25329828 -0.22949082
0002c0 04 f8 63 be 68 30 73 3d 0a 3c 82 3d a4 7f 62 3d
       -0.22262579 0.059372336 0.06359108 0.05529751
0002d0 5d 49 2c 3d b3 22 3a be 16 e0 56 3c f2 12 8b be
       0.042062152 -0.18177299 0.01311495 -0.27162892
0002e0 70 40 4d be 55 3e 38 3e cb 81 17 be d8 fc cb 3d
       -0.20044112 0.17992528 -0.14795606 0.099603355
0002f0 22 3e 6e 3e d8 30 90 be 34 cd 09 be 41 1e 22 3e
       0.2326589 -0.28162265 -0.13457185 0.15831853
000300 b9 31 51 be 20 03 b3 3d d0 8c b4 bd ed 3f ef 3e
       -0.20429124 0.087408304 -0.0881592 0.4672846
000310 c2 00 92 3e fc ca 5f be d9 34 fc 3d 19 6f fa bd
       0.28516203 -0.21854776 0.123147674 -0.122282214

fc3.bias f4 [2]
000000 ac 23 76 bc 8e fb f1 bc
       -0.015023153 -0.029538896

bn1.weight f4 [128]
000000 39 50 c1 3e 65 5f 13 3f 69 8d 0e 3f 49 e3 13 3f
       0.37756518 0.57567436 0.55684525 0.57768685
000010 13 1b 3c 3f e6 89 7d 3f 51 a1 80 3f 5b be b9 3e
       0.7347881 0.9903854 1.004923 0.36278042
000020 91 dc 98 3e aa c3 86 3f f3 64 81 3f 78 3f 0f 3f
       0.2985578 1.0528462 1.0108932 0.5595622
000030 e1 86 7c 3f d4 2e 79 3f e6 ef 5a 3f 5f 85 a1 3f
       0.9864331 0.9733708 0.85522306 1.2618827
000040 81 12 33 3f 0a 44 4e 3f 43 68 64 3f b8 b1 58 3f
       0.6995011 0.8057257 0.8922159 0.8464618
000050 21 64 b9 3e a5 a6 28 3f 0d 4b e9 3e fa 7d 5d 3f
       0.36209205 0.6587928 0.45565072 0.8652035
000060 1c da 44 3f da 82 35 3f ae 4e 5e 3f 62 1e f9 3e
       0.7689531 0.7090279 0.86838806 0.48655993
000070 b3 18 c0 3e ec 57 eb 3e bb c9 81 3f a8 8b fc 3e
       0.37518844 0.45965517 1.0139688 0.493253
000080 93 45 00 3f cb 22 bb 3e 1b 18 0f 3f b2 fd 1f 3f
       0.5010616 0.36549982 0.5589616 0.62496483
000090 b1 57 31 3f ca 84 c1 3e 07 1e 09 3f 06 42 d7 3e
       0.6927443 0.37796623 0.53561443 0.4204256
0000a0 b1 a5 96 3f bb 26 7a 3f 91 07 6e 3f 00 44 c3 3e
       1.1769315 0.9771535 0.92980295 0.38137817
0000b0 0a 69 8c 3f 8b bb 0b 3f 80 44 3c 3f 49 07 82 3f
       1.0969555 0.5458304 0.7354202 1.0158473
0000c0 c2 b2 79 3f 11 25 76 3f b9 69 35 3f 7f d7 f5 3e
       0.9753839 0.9615031 0.70864445 0.48015973
0000d0 f9 18 da be 08 38 3a 3f e2 38 5f 3f 4b 6b 11 3f
       -0.42597178 0.72741747 0.8719617 0.5680434
0000e0 ea dc 17 3f c0 40 5d 3f af a7 55 3f 21 cb 2a 3f
       0.59321463 0.86426926 0.8345899 0.667162
0000f0 f8 9c ab 3e 20 2b 1e 3f e1 f0 4c 3f e4 1b 00 bf
       0.33518195 0.61784554 0.8005505 -0.5004256
000100 6c ae 83 3f 6b 15 fd 3e d3 f0 61 3f 54 22 0b 3f
       1.0287604 0.49430403 0.88258094 0.54349256
000110 44 52 3c 3f 7c f2 33 3f f7 6a 72 3f 20 73 34 3f
       0.7356303 0.70291877 0.94694465 0.70488167
000120 52 5a 27 3f 93 f2 96 3f 4b c1 9b 3e 21 3d 41 3f
       0.6537219 1.1792778 0.30420908 0.754839
000130 ad 13 1d 3f a6 8c 91 3f 41 a8 36 3f d2 1f 17 3f
       0.6135815 1.1371047 0.71350485 0.5903293
000140 2a 4c 48 3f 7b 9f 9a 3e a4 08 03 3f 4d 89 06 3f
       0.7824122 0.301998 0.5118506 0.52553254
000150 09 b0 c8 3e 8a 3c 3b 3f c2 13 2f 3f 22 a1 20 3f
       0.39196804 0.7313925 0.68389523 0.6274587
000160 68 11 54 3f 49 c5 13 3f a7 a7 5e 3f a4 44 d5 3e
       0.8283906 0.5772291 0.8697457 0.4165393
000170 e7 da 2c 3f 36 da 2d 3f 2a 43 65 3f 12 9f 77 3f
       0.6752152 0.6791109 0.8955561 0.967271
000180 48 4d 1f 3f 5f a6 64 3f 27 92 4e 3f 82 7c e4 3e
       0.62227297 0.8931636 0.8069176 0.44626242
000190 c5 6c a0 3f c2 f4 88 3f 7b 09 8e 3f 79 ca 0f 3f
       1.2533194 1.0699694 1.1096643 0.56168324
0001a0 d7 3a 21 3f a4 b2 73 3f a1 12 6f 3f 9d c2 1b 3f
       0.6298041 0.9519446 0.933878 0.6084383
0001b0 3c a3 5f 3f 8f 77 55 3f f9 60 7d 3f 42 49 7c 3f
       0.8735845 0.83385557 0.98976094 0.9854928
0001c0 5d 56 94 3f 21 74 d8 3e d3 cf 2f 3f 5e 47 63 3f
       1.1588856 0.422761 0.6867649 0.8878077
0001d0 aa 49 0c 3f 94 53 6c 3f 54 3c 34 3f 84 53 ac 3e
       0.547999 0.9231503 0.70404553 0.33657467
0001e0 c4 a6 6e 3f 11 96 b4 3e 44 6f 0e 3f c3 d3 dd 3e
       0.93223214 0.35270742 0.5563853 0.43325624
0001f0 09 55 a3 be 7f 8c 8f 3f 50 93 80 3f b9 e2 37 3f
       -0.31900814 1.1214751 1.0044956 0.71830326

bn1.bias f4 [128]
000000 3b d1 b8 3c fb c0 25 3d c5 de cc 3c fa 42 bd bb
       0.022560706 0.040467244 0.025008569 -0.0057758065
000010 78 1a 1e be 0f 88 02 be 1f a8 35 bd 87 75 11 3d
       -0.15439785 -0.12747215 -0.044349786 0.035512473
000020 3f 17 c9 bd 2b 94 ac bd 5b 27 c9 bd 5e d9 02 3d
       -0.09818887 -0.08426698 -0.098219596 0.03194558
000030 34 3d 16 be 02 ed 29 3d ec ad 0c 3c d8 d9 4b bc
       -0.14671785 0.041485794 0.008586388 -0.012442075
000040 e0 d6 0c 3d a8 24 15 be 7b f6 1a be 49 12 5b 3c
       0.03438461 -0.14564764 -0.15133087 0.013371059
000050 e3 df a0 bd 08 02 31 3d c0 b7 ee bc 9e 7a c4 bd
       -0.07855203 0.043214828 -0.029140353 -0.095937
000060 81 50 94 3d 57 9c 00 bc 97 7a 38 3c 36 6e 2f 3c
       0.072419174 -0.007849774 0.011259696 0.010707429
000070 a3 d7 e8 3c 04 fd 24 be 73 7d 28 3d 39 c2 54 bb
       0.028423136 -0.16112143 0.041135263 -0.0032464399
000080 02 d9 b4 bd 98 13 ea bc 0e 5f 92 3d aa 84 8d bd
       -0.088304535 -0.028573796 0.071470365 -0.06910069
000090 39 4a cf 3c 8d bd dc 3c 25 a1 e1 bd 5c bc 68 3d
       0.025303947 0.026945854 -0.11017064 0.05682026
0000a0 cd 66 cd bd 77 04 19 3b c8 16 8c ba 69 dd 1b bd
       -0.10029373 0.0023348609 -0.0010687942 -0.03805295
0000b0 f7 a4 35 bc 45 f6 ef bd af 43 7c bc 08 7a 03 3d
       -0.011086694 -0.11716894 -0.015396996 0.0320988
0000c0 f8 6f 09 bd 4d 26 61 bd dd 36 9a bc e4 c2 37 bd
       -0.033554047 -0.054968167 -0.018824989 -0.044863597
0000d0 64 78 96 bd 68 b5 f2 3b 9e ed 02 be 67 85 54 3c
       -0.073471814 0.007406879 -0.12785956 0.012971259
0000e0 e5 cb 24 be 19 bb fd bc b6 a0 d2 3c 5f 70 26 ba
       -0.16093405 -0.030973004 0.025711399 -0.0006349142
0000f0 5f 96 62 3d 27 ae fb bd a4 07 ca bd ef 07 f2 3d
       0.055319186 -0.12289076 -0.098647386 0.118179195
000100 1f 21 6c bd 56 3c 1a be 32 59 0a be c7 19 3f bd
       -0.057648774 -0.15062079 -0.13510588 -0.046655443
000110 55 12 00 be 0b 75 98 bd e9 07 1d bd d0 0a b6 3c
       -0.12506993 -0.07444199 -0.03833762 0.022221953
000120 e2 40 85 bd 66 aa 0f 3d c5 ba 7e 3d 01 70 25 be
       -0.06506516 0.035074614 0.062189836 -0.16156007
000130 54 0a 6b 3d cf 6d 71 bd f2 3f 26 3d 93 71 1b be
       0.057382897 -0.058942612 0.040588327 -0.15180044
000140 9b ad 8c bc 16 7e 9a 3c 99 fb d4 bd 3e f1 a0 bd
       -0.017172625 0.01885895 -0.10399551 -0.07858513
000150 96 fc b8 bd be a6 33 3c 03 50 a2 3c 2c 32 58 39
       -0.09032552 0.010965047 0.019813543 0.00020618056
000160 e0 07 8d bd f6 7d 34 3c 9c dc 9c bd 00 5d 02 3d
       -0.06886268 0.01101636 -0.076592654 0.031826973
000170 f5 e9 20 bd cd 48 f2 bc 0d c8 3d 3d 55 cf 40 3d
       -0.03928562 -0.02957573 0.04633336 0.047072727
000180 30 f6 0c be 9b e7 83 3b 7f 08 d8 bd 67 48 60 3c
       -0.13765788 0.0040254123 -0.105484955 0.013689137
000190 0e 17 54 bd 88 50 23 3d b2 97 dc bc 29 6c 1d bc
       -0.0517798 0.039871722 -0.026927803 -0.009608307
0001a0 11 75 04 be 5f e1 1c bc 47 ae 40 bd e4 ae 2f be
       -0.12935282 -0.009575217 -0.047041204 -0.17156559
0001b0 c6 64 be bd 18 ba d4 3b 7f 5e f8 bd 94 06 ec bd
       -0.09296565 0.0064919107 -0.12127399 -0.11524692
0001c0 0f 88 b1 bb 2f 9e 9b 3c 7c ce 4d bd 15 a6 93 bd
       -0.005417831 0.018996326 -0.050245747 -0.07209412
0001d0 15 9b 8f bd 01 76 96 bd dc 74 8d bd 71 e3 e6 3c
       -0.070120014 -0.07346726 -0.06907055 0.028184624
0001e0 36 75 3c bd fd 63 f1 bd 16 91 bd bc 14 e8 88 bd
       -0.04601022 -0.117866494 -0.023140471 -0.066848904
0001f0 f0 b3 f5 3d 7d 1b ac bd b4 28 d7 bd 49 44 aa 3d
       0.11997211 -0.084036805 -0.105058104 0.083138056

bn1.running_mean f4 [128]
000000 69 c6 a8 3d 99 7e b2 3e 0b 71 a4 3c 3c d4 1b 3e
       0.08240969 0.3486221 0.020073434 0.1521768
000010 55 73 22 40 51 28 75 3f 44 2d 89 3f 76 47 86 3f
       2.5382893 0.9576464 1.0716939 1.0490558
000020 f8 86 55 3e c4 d7 20 3d 06 56 6c 3e c6 87 2c 3e
       0.20852268 0.03926827 0.2307969 0.16848668
000030 ef 82 ed 3c 10 b6 6c 3d 83 a2 48 3f 6f a3 5b 3d
       0.028993098 0.057790816 0.78372973 0.05362266
000040 dd 8b 14 40 dc 85 d1 3d ed 24 d8 3e 92 73 3d 3f
       2.3210366 0.1023061 0.42215672 0.7400447
000050 7e 0b 04 40 a4 22 7d 3e 04 00 00 00 38 02 9b 3d
       2.0632014 0.24720246 6e-45 0.075687826
000060 33 5d ac 3e d1 e5 4b 3f e6 3b 06 3e 78 83 32 3e
       0.33664855 0.79647547 0.13108787 0.17432964
000070 ae 93 7a 3f 06 0c 85 3f a8 8f 7a 3b 90 18 98 3c
       0.9788159 1.0394294 0.0038232598 0.0185664
000080 02 2a 29 40 be a2 89 3f 1b 31 9d 3e 48 08 28 3f
       2.643189 1.075279 0.30701527 0.65637636
000090 f2 ff 10 3f 45 e0 af 3e 16 d6 21 3d 45 39 56 3e
       0.5664054 0.34350792 0.03951081 0.20920284
0000a0 0a cc 9c 3f ce 48 7f 3f 7a 57 8c 3f 95 35 aa 3f
       1.2249768 0.99720466 1.0964196 1.3297602
0000b0 b5 a8 86 3f bd a1 32 3d 76 0f 1f 40 70 80 d2 3d
       1.0520235 0.043611277 2.4853187 0.10278404
0000c0 7f da 90 3f bb c9 23 3e 00 cb 1b 3f 90 b3 c0 3f
       1.131668 0.15994923 0.6085663 1.5054798
0000d0 e4 19 da 3d 1c 38 53 40 4b 67 1a 40 fc 2a a8 3f
       0.106494695 3.3002996 2.4125545 1.3138118
0000e0 63 d8 c2 3e 90 f5 06 3f 30 b3 b5 3e 8b 4a 46 3d
       0.38055715 0.5271845 0.35488272 0.048410933
0000f0 31 f9 83 3f 3a 3d 0b 40 ef cf 80 3d 92 6a 88 3e
       1.0310422 2.175612 0.0628966 0.26643807
000100 53 e7 9a 3f 21 ee a4 3d ba 79 60 3e 51 f5 17 3d
       1.2101845 0.08053232 0.21921435 0.037099186
000110 21 04 db 3d 5e fd 5a 3c eb ea ef 3c 51 3a a1 3e
       0.10694147 0.0133660715 0.029286822 0.31489804
000120 e2 83 0a 3e 95 be 30 3e 5f a7 f7 3f d5 38 0e 3d
       0.13526872 0.17260201 1.9347953 0.034722168
000130 5f 5d a6 3e ad 8d 51 3d ed 17 12 40 45 93 84 3d
       0.32493111 0.051160503 2.2827103 0.06473402
000140 f2 2f e5 3f f6 09 a0 3f 0e 82 e3 3d 3a 30 58 3e
       1.7905257 1.250304 0.1110879 0.21112147
000150 78 75 7b 3c ad 28 2e 3f 68 4e c1 3e f8 6a 51 3f
       0.015347831 0.68030816 0.37755132 0.81803846
000160 df 53 9a 3d b4 9a c9 3f ce 07 6b 3f 5d e4 44 3f
       0.075355284 1.5750337 0.91808784 0.76910955
000170 14 3e 66 3e 86 a7 da 3f de e5 b2 3e ac fe 4e 3f
       0.22484618 1.7082374 0.34941 0.8085735
000180 f1 7c dd 3d 98 35 7a 3b fe 7b 23 40 0d a9 3e 3f
       0.10814846 0.0038178917 2.554443 0.744767
000190 b2 ae 82 3e 13 a0 bf 3f f8 5a 3a 3e cc ad e3 3d
       0.25523907 1.4970726 0.18198764 0.111171335
0001a0 e1 37 b5 3d 44 04 cf 3c f6 80 96 3e 82 d2 5d 3e
       0.08848549 0.025270589 0.29395264 0.21662334
0001b0 57 93 20 3f b8 9a 8a 3f 80 d7 8f 3f 8c 13 41 3d
       0.6272482 1.0828466 1.123764 0.047137782
0001c0 21 ac 04 40 f6 37 c8 3f 74 d3 15 3d 0e 86 0f 40
       2.073006 1.5642078 0.03657861 2.242557
0001d0 fc 2d 63 3d 9e 04 02 3e 8f 66 a9 3d 72 45 66 3e
       0.055463776 0.12697074 0.082715146 0.22487429
0001e0 84 ae 46 3f 36 f3 b1 3c 9a 03 6b 3d d1 1c 78 3f
       0.7761004 0.021722417 0.05737648 0.9691897
0001f0 54 46 36 3d fd 92 00 3f e5 d8 20 40 d8 bc ab 3d
       0.044500664 0.50224286 2.5132382 0.083856285

bn1.running_var f4 [128]
000000 ce d6 bc 3d 01 b1 d9 3e e0 6b 66 3c 4c 8b 1a 3e
       0.09220658 0.42517856 0.014063805 0.150922
000010 65 63 42 40 d8 88 d2 3f cf 20 67 3f 0e 2b 87 3f
       3.0373166 1.6448011 0.90284437 1.0560014
000020 2f 63 d5 3e 1d 4a 14 3d a6 fb 48 3e 08 17 52 3e
       0.41677234 0.036203492 0.19627246 0.20516598
000030 65 93 d7 3c db ab b4 3d ee 85 82 3f d6 f2 31 3d
       0.0263154 0.08821841 1.0197122 0.043444477
000040 2a d6 f9 3f 3f 16 a3 3d 27 1b 14 3f a3 9d c1 3f
       1.9518483 0.079632275 0.5785393 1.5126232
000050 88 c3 57 40 38 1c 44 3e 04 00 00 00 cd 32 55 3d
       3.3713093 0.1915139 6e-45 0.0520504
000060 6e 9c bf 3e cc 3d 8c 3f 2f 95 47 3d 19 c9 48 3e
       0.37424034 1.0956359 0.048726257 0.19607963
000070 57 bb 82 3f 7d 97 c1 3f fd 9b 16 3b bd 71 23 3c
       1.0213422 1.5124356 0.002298116 0.009975848
000080 4a fd f7 3f 5e ff 84 3f 1c 2c bd 3e 5e 6e 55 3f
       1.9374173 1.0390432 0.36947715 0.8337153
000090 35 b6 3c 3f a0 a8 ef 3e f5 27 22 3d 6a c8 89 3e
       0.73715526 0.46808338 0.039588887 0.26910716
0000a0 fe 26 ef 3f 14 bb 0f 40 14 82 3f 3f 77 b8 f2 3f
       1.8683774 2.2457933 0.7480786 1.8962544
0000b0 a4 d4 d6 3f 50 4e 27 3d 8f 11 26 40 25 75 a7 3d
       1.6783643 0.04084617 2.5948217 0.081766404
0000c0 ca ac 53 3f 3d c6 74 3e 6e 8b c1 3e 82 df 14 40
       0.8268553 0.23903747 0.3780169 2.3261418
0000d0 13 50 f9 3d b1 27 cd 3f 55 f1 2f 40 e0 10 fd 3f
       0.12173476 1.6027738 2.7491047 1.9770775
0000e0 ae 53 b7 3e e9 e9 be 3e fe e8 16 3f 27 c0 a5 3c
       0.3580603 0.37287834 0.5894927 0.020233227
0000f0 8b f6 0c 40 e1 cd 0c 40 1f 53 f4 3c f4 1e aa 3e
       2.2025478 2.2000659 0.029824791 0.3322674
000100 43 36 df 3f de 62 a2 3d 7e 60 82 3e 15 ec a9 3c
       1.7438434 0.07929014 0.25464243 0.020742455
000110 70 ed 51 3d 99 2e 0d 3c 53 2b 1a 3d d2 84 86 3e
       0.05125183 0.008617067 0.037638973 0.2627321
000120 f8 9a 0c 3e 27 e5 d1 3d 41 06 39 40 cb 3a ac 3c
       0.13730991 0.102487855 2.8910067 0.021024128
000130 6b 86 d7 3e 3f 7d 5f 3c e3 a4 ac 3f c4 f9 11 3d
       0.4209474 0.013640701 1.348782 0.035638586
000140 c1 52 4d 3f 07 a0 d8 3f 7a ba f6 3d 43 d9 55 3e
       0.802044 1.6923836 0.12047286 0.2088366
000150 66 b1 6a 3c b1 6d b2 3f 4a bb 03 3f 23 e2 11 3f
       0.014324522 1.3939725 0.51457655 0.5698568
000160 12 c1 f0 3d 7d a6 05 40 f3 29 ca 3f cb e1 d5 3f
       0.11755575 2.0882866 1.5794052 1.6709532
000170 12 b3 62 3d 69 42 11 40 c1 0c 8f 3e 42 23 38 3f
       0.055346556 2.2696784 0.27939418 0.719288
000180 e2 cf bf 3d 23 d1 19 3a e3 b5 5f 3f f9 1d ba 3f
       0.093658224 0.00058676506 0.8738691 1.4540397
000190 a5 76 40 3e 82 76 e7 3f 0c 8b 1a 3e ac 6a 04 3e
       0.1879526 1.8083041 0.15092105 0.12931317
0001a0 7d d6 ee 3d fb a4 c5 3c 7e ff 84 3e 46 08 59 3e
       0.11662004 0.02412652 0.25976175 0.21194562
0001b0 ce 5a 35 3f 28 d5 c4 3f 8b 35 14 3f 6d 4a 7d 3d
       0.7084168 1.537755 0.578942 0.061838556
0001c0 99 b3 69 40 7b aa 28 40 5f 60 03 3d a3 c8 26 40
       3.6515868 2.6354053 0.03207433 2.605996
0001d0 89 21 13 3d 95 1a 17 3e 2c 48 bc 3c 9e 28 2d 3e
       0.035920653 0.14756234 0.022983633 0.16910025
0001e0 71 e1 2f 3f 30 da ac 3c b0 8e 52 3d 8b 51 ba 3f
       0.6870337 0.021100134 0.05140561 1.4556135
0001f0 68 14 04 3d 36 3e 56 3f d0 e6 d7 3f 7f 2e 74 3d
       0.032246023 0.83688676 1.6867313 0.059614655

bn2.weight f4 [100]
000000 3e a9 72 3f 08 d6 92 3d 38 36 4d 3e 6e 5f d1 3e
       0.94789493 0.071697295 0.20040214 0.4089312
000010 9c 53 76 3e 4a 3b 9f 3e 84 cf a2 3e 56 0c 86 3e
       0.24055332 0.3109992 0.31798947 0.26181287
000020 00 84 4d 3d 50 9f 21 3e 91 59 40 3f 8e 3e f0 3e
       0.050174713 0.15783429 0.7513667 0.46922725
000030 c8 3d a8 3e 24 c3 c8 3e 7a bd 76 3f d2 31 41 3f
       0.32859635 0.3921138 0.9638287 0.75466645
000040 25 51 30 3f de 3d d9 3e 5b 77 61 3f cb dd 7d 3f
       0.68873817 0.42430013 0.88072747 0.99166554
000050 b8 54 aa 3e 24 f7 e4 3e 1e ce 59 3f 76 37 9e 3e
       0.3326776 0.44719803 0.85080135 0.30901688
000060 a2 bc 7a 3f 70 ce 54 3d 70 97 11 3d 72 e9 07 3f
       0.9794408 0.051954687 0.035544813 0.53090584
000070 94 fe f1 3e 40 1c 00 3f 57 70 09 3f af ed 24 3f
       0.4726454 0.50043106 0.5368704 0.64425176
000080 d4 69 2e 3e 5a 3f d9 3e 66 b7 a8 3e 98 92 d9 3d
       0.17032558 0.42431146 0.32952422 0.10623664
000090 0c 6f db 3e b0 27 20 3f b5 41 77 3f c6 0f df 3e
       0.4285816 0.6256056 0.96584636 0.43566722
0000a0 d0 b8 73 3f 30 99 d7 3e 76 ed 2e 3f 90 d5 22 3f
       0.95203876 0.4210906 0.68331087 0.6360712
0000b0 1a c4 90 3e 1c d0 b5 3e bb f9 56 3f c0 a5 37 3d
       0.28274614 0.35510337 0.8397481 0.044835806
0000c0 60 0d 3c 3d 6e 5a 53 3f 50 61 5d 3d 11 96 4c 3f
       0.045911193 0.8255986 0.054047883 0.79916483
0000d0 79 99 12 3f 11 5f 5c 3f 9e 71 30 3f a8 7a 40 3e
       0.5726543 0.8608256 0.68923366 0.1879679
0000e0 1c 2c 6d 3f 0a c3 88 3e f5 bf 1d 3f 52 68 06 3f
       0.9264543 0.26711303 0.6162103 0.5250293
0000f0 d9 6c 7d 3f 78 9e 3a 3f 20 4b b5 3d 50 60 65 3e
       0.98994213 0.72898054 0.088522196 0.22400022
000100 46 cd 96 3e 50 e3 4c 3f c8 ce 1c 3f a0 b8 7a 3d
       0.29453486 0.8003435 0.61253023 0.06121123
000110 7d 6a 31 3f 46 b2 c6 3e 80 84 84 3d a2 be 64 3f
       0.69303113 0.38807887 0.06470585 0.8935338
000120 49 77 30 3f e0 65 c3 3e d5 1d 49 3f 6a c0 f3 3e
       0.68932015 0.38163662 0.78561145 0.47607738
000130 ca a1 3c 3f c7 9e 55 3f b0 26 57 3f eb da 57 3f
       0.7368437 0.834454 0.8404341 0.8431842
000140 37 08 50 3f 14 94 14 3f f0 76 12 3f 7d 6f 78 3f
       0.81262535 0.5803845 0.57212734 0.9704512
000150 9c 2c d4 3e 05 58 28 3f ee 70 b5 3e 94 18 39 3e
       0.41440284 0.6575931 0.3543772 0.18075782
000160 cc 2a cf 3e f9 6f 5d 3f 18 4e b4 3e a7 3e 20 3f
       0.4046234 0.8649898 0.3521583 0.625956
000170 9b d1 48 3f 62 e2 e1 3e 21 a5 3f 3f df e6 13 3f
       0.7844483 0.4411803 0.7486134 0.57774156
000180 b6 0e 3b 3f 32 10 6a 3f 30 51 37 3f a6 17 ff 3e
       0.7306932 0.9143096 0.7160826 0.4982273

bn2.bias f4 [100]
000000 00 00 00 00 00 00 00 00 00 00 00 00 00 00 00 00
       0.0 0.0 0.0 0.0
000010 00 00 00 00 00 00 00 00 00 00 00 00 00 00 00 00
       0.0 0.0 0.0 0.0
000020 00 00 00 00 00 00 00 00 00 00 00 00 00 00 00 00
       0.0 0.0 0.0 0.0
000030 00 00 00 00 00 00 00 00 00 00 00 00 00 00 00 00
       0.0 0.0 0.0 0.0
000040 00 00 00 00 00 00 00 00 00 00 00 00 00 00 00 00
       0.0 0.0 0.0 0.0
000050 00 00 00 00 00 00 00 00 00 00 00 00 00 00 00 00
       0.0 0.0 0.0 0.0
000060 00 00 00 00 00 00 00 00 00 00 00 00 00 00 00 00
       0.0 0.0 0.0 0.0
000070 00 00 00 00 00 00 00 00 00 00 00 00 00 00 00 00
       0.0 0.0 0.0 0.0
000080 00 00 00 00 00 00 00 00 00 00 00 00 00 00 00 00
       0.0 0.0 0.0 0.0
000090 00 00 00 00 00 00 00 00 00 00 00 00 00 00 00 00
       0.0 0.0 0.0 0.0
0000a0 00 00 00 00 00 00 00 00 00 00 00 00 00 00 00 00
       0.0 0.0 0.0 0.0
0000b0 00 00 00 00 00 00 00 00 00 00 00 00 00 00 00 00
       0.0 0.0 0.0 0.0
0000c0 00 00 00 00 00 00 00 00 00 00 00 00 00 00 00 00
       0.0 0.0 0.0 0.0
0000d0 00 00 00 00 00 00 00 00 00 00 00 00 00 00 00 00
       0.0 0.0 0.0 0.0
0000e0 00 00 00 00 00 00 00 00 00 00 00 00 00 00 00 00
       0.0 0.0 0.0 0.0
0000f0 00 00 00 00 00 00 00 00 00 00 00 00 00 00 00 00
       0.0 0.0 0.0 0.0
000100 00 00 00 00 00 00 00 00 00 00 00 00 00 00 00 00
       0.0 0.0 0.0 0.0
000110 00 00 00 00 00 00 00 00 00 00 00 00 00 00 00 00
       0.0 0.0 0.0 0.0
000120 00 00 00 00 00 00 00 00 00 00 00 00 00 00 00 00
       0.0 0.0 0.0 0.0
000130 00 00 00 00 00 00 00 00 00 00 00 00 00 00 00 00
       0.0 0.0 0.0 0.0
000140 00 00 00 00 00 00 00 00 00 00 00 00 00 00 00 00
       0.0 0.0 0.0 0.0
000150 00 00 00 00 00 00 00 00 00 00 00 00 00 00 00 00
       0.0 0.0 0.0 0.0
000160 00 00 00 00 00 00 00 00 00 00 00 00 00 00 00 00
       0.0 0.0 0.0 0.0
000170 00 00 00 00 00 00 00 00 00 00 00 00 00 00 00 00
       0.0 0.0 0.0 0.0
000180 00 00 00 00 00 00 00 00 00 00 00 00 00 00 00 00
       0.0 0.0 0.0 0.0

bn2.running_mean f4 [100]
000000 00 00 00 00 00 00 00 00 00 00 00 00 00 00 00 00
       0.0 0.0 0.0 0.0
000010 00 00 00 00 00 00 00 00 00 00 00 00 00 00 00 00
       0.0 0.0 0.0 0.0
000020 00 00 00 00 00 00 00 00 00 00 00 00 00 00 00 00
       0.0 0.0 0.0 0.0
000030 00 00 00 00 00 00 00 00 00 00 00 00 00 00 00 00
       0.0 0.0 0.0 0.0
000040 00 00 00 00 00 00 00 00 00 00 00 00 00 00 00 00
       0.0 0.0 0.0 0.0
000050 00 00 00 00 00 00 00 00 00 00 00 00 00 00 00 00
       0.0 0.0 0.0 0.0
000060 00 00 00 00 00 00 00 00 00 00 00 00 00 00 00 00
       0.0 0.0 0.0 0.0
000070 00 00 00 00 00 00 00 00 00 00 00 00 00 00 00 00
       0.0 0.0 0.0 0.0
000080 00 00 00 00 00 00 00 00 00 00 00 00 00 00 00 00
       0.0 0.0 0.0 0.0
000090 00 00 00 00 00 00 00 00 00 00 00 00 00 00 00 00
       0.0 0.0 0.0 0.0
0000a0 00 00 00 00 00 00 00 00 00 00 00 00 00 00 00 00
       0.0 0.0 0.0 0.0
0000b0 00 00 00 00 00 00 00 00 00 00 00 00 00 00 00 00
       0.0 0.0 0.0 0.0
0000c0 00 00 00 00 00 00 00 00 00 00 00 00 00 00 00 00
       0.0 0.0 0.0 0.0
0000d0 00 00 00 00 00 00 00 00 00 00 00 00 00 00 00 00
       0.0 0.0 0.0 0.0
0000e0 00 00 00 00 00 00 00 00 00 00 00 00 00 00 00 00
       0.0 0.0 0.0 0.0
0000f0 00 00 00 00 00 00 00 00 00 00 00 00 00 00 00 00
       0.0 0.0 0.0 0.0
000100 00 00 00 00 00 00 00 00 00 00 00 00 00 00 00 00
       0.0 0.0 0.0 0.0
000110 00 00 00 00 00 00 00 00 00 00 00 00 00 00 00 00
       0.0 0.0 0.0 0.0
000120 00 00 00 00 00 00 00 00 00 00 00 00 00 00 00 00
       0.0 0.0 0.0 0.0
000130 00 00 00 00 00 00 00 00 00 00 00 00 00 00 00 00
       0.0 0.0 0.0 0.0
000140 00 00 00 00 00 00 00 00 00 00 00 00 00 00 00 00
       0.0 0.0 0.0 0.0
000150 00 00 00 00 00 00 00 00 00 00 00 00 00 00 00 00
       0.0 0.0 0.0 0.0
000160 00 00 00 00 00 00 00 00 00 00 00 00 00 00 00 00
       0.0 0.0 0.0 0.0
000170 00 00 00 00 00 00 00 00 00 00 00 00 00 00 00 00
       0.0 0.0 0.0 0.0
000180 00 00 00 00 00 00 00 00 00 00 00 00 00 00 00 00
       0.0 0.0 0.0 0.0

bn2.running_var f4 [100]
000000 00 00 80 3f 00 00 80 3f 00 00 80 3f 00 00 80 3f
       1.0 1.0 1.0 1.0
000010 00 00 80 3f 00 00 80 3f 00 00 80 3f 00 00 80 3f
       1.0 1.0 1.0 1.0
000020 00 00 80 3f 00 00 80 3f 00 00 80 3f 00 00 80 3f
       1.0 1.0 1.0 1.0
000030 00 00 80 3f 00 00 80 3f 00 00 80 3f 00 00 80 3f
       1.0 1.0 1.0 1.0
000040 00 00 80 3f 00 00 80 3f 00 00 80 3f 00 00 80 3f
       1.0 1.0 1.0 1.0
000050 00 00 80 3f 00 00 80 3f 00 00 80 3f 00 00 80 3f
       1.0 1.0 1.0 1.0
000060 00 00 80 3f 00 00 80 3f 00 00 80 3f 00 00 80 3f
       1.0 1.0 1.0 1.0
000070 00 00 80 3f 00 00 80 3f 00 00 80 3f 00 00 80 3f
       1.0 1.0 1.0 1.0
000080 00 00 80 3f 00 00 80 3f 00 00 80 3f 00 00 80 3f
       1.0 1.0 1.0 1.0
000090 00 00 80 3f 00 00 80 3f 00 00 80 3f 00 00 80 3f
       1.0 1.0 1.0 1.0
0000a0 00 00 80 3f 00 00 80 3f 00 00 80 3f 00 00 80 3f
       1.0 1.0 1.0 1.0
0000b0 00 00 80 3f 00 00 80 3f 00 00 80 3f 00 00 80 3f
       1.0 1.0 1.0 1.0
0000c0 00 00 80 3f 00 00 80 3f 00 00 80 3f 00 00 80 3f
       1.0 1.0 1.0 1.0
0000d0 00 00 80 3f 00 00 80 3f 00 00 80 3f 00 00 80 3f
       1.0 1.0 1.0 1.0
0000e0 00 00 80 3f 00 00 80 3f 00 00 80 3f 00 00 80 3f
       1.0 1.0 1.0 1.0
0000f0 00 00 80 3f 00 00 80 3f 00 00 80 3f 00 00 80 3f
       1.0 1.0 1.0 1.0
000100 00 00 80 3f 00 00 80 3f 00 00 80 3f 00 00 80 3f
       1.0 1.0 1.0 1.0
000110 00 00 80 3f 00 00 80 3f 00 00 80 3f 00 00 80 3f
       1.0 1.0 1.0 1.0
000120 00 00 80 3f 00 00 80 3f 00 00 80 3f 00 00 80 3f
       1.0 1.0 1.0 1.0
000130 00 00 80 3f 00 00 80 3f 00 00 80 3f 00 00 80 3f
       1.0 1.0 1.0 1.0
000140 00 00 80 3f 00 00 80 3f 00 00 80 3f 00 00 80 3f
       1.0 1.0 1.0 1.0
000150 00 00 80 3f 00 00 80 3f 00 00 80 3f 00 00 80 3f
       1.0 1.0 1.0 1.0
000160 00 00 80 3f 00 00 80 3f 00 00 80 3f 00 00 80 3f
       1.0 1.0 1.0 1.0
000170 00 00 80 3f 00 00 80 3f 00 00 80 3f 00 00 80 3f
       1.0 1.0 1.0 1.0
000180 00 00 80 3f 00 00 80 3f 00 00 80 3f 00 00 80 3f
       1.0 1.0 1.0 1.0
