checkpoint_critic1_critic.pth (torch_old, 82045 bytes, 13 tensors)

fcs1.weight f4 [128, 48]
0	0x3de65fcf	0.11248743
1	0xbe59955b	-0.21248381
2	0xb9beb41c	-0.00036373816
3	0xbdb177f0	-0.086654544
4	0xbdfe1368	-0.12406045
5	0xbb25beeb	-0.0025290798
6	0xbcce6fb2	-0.025199745
7	0xbdff78f6	-0.12474243
8	0x3e94fa19	0.2909706
9	0xbe32fc91	-0.17479159
10	0x3d3e422a	0.046449818
11	0xbe99ab90	-0.30013704
12	0xbd9a33d9	-0.075294204
13	0x3c0d1252	0.008610325
14	0x3dfab4f9	0.12241549
15	0xbe46665c	-0.19374985
16	0x3e15506b	0.14581458
17	0xbe68c667	-0.22731934
18	0x3dfa56bb	0.12223574
19	0x3e3eb663	0.18624263
20	0x3de13d2b	0.10997995
21	0x3e61a83d	0.22036834
22	0x3e1a0dbb	0.150443
23	0x3dc820fe	0.09771918
24	0x3d9d8b29	0.07692558
25	0x3ea86dac	0.32896173
26	0x3d35e4a3	0.044407498
27	0xbdd19aca	-0.10234602
28	0x3db4161a	0.08793278
29	0xba19c8c7	-0.0005866405
30	0x3c4613c1	0.012089671
31	0xbdb9ef84	-0.09078887
32	0x3e10a202	0.14124301
33	0x3e82a1c4	0.25514042
34	0x3da7d74b	0.08195361
35	0xbd06bd78	-0.032895535
36	0x3b88c48d	0.0041738213
37	0xbde29ce8	-0.11065084
38	0xbc8eb90a	-0.017422218
39	0xbbc0fcef	-0.005889527
40	0x3e32d677	0.17464624
41	0x3e837ed8	0.25682712
42	0xbe16842f	-0.14698862
43	0xbe2b2027	-0.16711484
44	0xbdd62aaf	-0.1045736
45	0x3e894d03	0.26816568
46	0xbdc0781f	-0.09397911
47	0xbdbeb72a	-0.093122795
48	0xbd720648	-0.05908802
49	0xbeac9355	-0.33706155
50	0x3d67a8b1	0.05655736
51	0xbcbb71f6	-0.02288149
52	0xbeb45332	-0.35219723
53	0x3e569b94	0.20957786
54	0xbbaa927e	-0.0052054515
55	0xbb8d2cdd	-0.0043083266
56	0x3d50b69c	0.0509554
57	0xbe3adfe2	-0.18249467
58	0x3d3368a8	0.04380098
59	0xbdc0d16e	-0.094149455
60	0xbe0687dd	-0.13137765
61	0xbdb7a6a1	-0.08967329
62	0x3d43a654	0.047766045
63	0xbc81ebc1	-0.015859487
64	0x3e8d84de	0.27640432
65	0xbe7addaf	-0.24498628
66	0x3cf8a7e4	0.030353494
67	0xbde0cb93	-0.10976329
68	0x3e146e0d	0.14495106
69	0xbd782aaa	-0.060587563
70	0x3d9146cc	0.070935816
71	0x3a55b1c0	0.0008151792
72	0xbe32252f	-0.17396997
73	0xbe845979	-0.25849512
74	0x3c8f0b17	0.017461343
75	0x3c7afe4c	0.015319418
76	0x3e9f2772	0.31084782
77	0x3e163c14	0.14671355
78	0x3d43fa88	0.047846347
79	0xbe04282a	-0.12905946
80	0xbdfef697	-0.12449377
81	0xbecd36b9	-0.40080813
82	0x3be65499	0.007029128
83	0x3d29dcd2	0.041470356
84	0x3e7458cd	0.23862
85	0xbda99fc5	-0.08282427
86	0x3c00c894	0.007860322
87	0x3d1a9e8c	0.03774886
88	0xbe634e4e	-0.2219784
89	0xbecf2b5f	-0.40462777
90	0xbdcaf877	-0.09910672
91	0xbb8df286	-0.0043318896
92	0xbe39cdb3	-0.18144874
93	0xbdcf57e5	-0.101241864
94	0xbbc8112b	-0.006105562
95	0xbdb2120f	-0.08694851
96	0x3bc9a52b	0.0061537228
97	0xbeb0e8b4	-0.34552538
98	0xbd218a08	-0.039438277
99	0xbb48fd71	-0.003066864
100	0xbc2d8df6	-0.010592928
101	0x3e092c40	0.13395786
102	0x3d14a652	0.036291428
103	0xbd6fa4a3	-0.05850662
104	0x3ced3e15	0.028960267
105	0xbdb8ec16	-0.09029405
106	0xbc9e9829	-0.019359665
107	0xbb9f10ce	-0.004854298
108	0xbd5363db	-0.0516089
109	0x3e356796	0.17715296
110	0x3d80182f	0.06254613
111	0xbd978459	-0.0739829
112	0x3dd5ea0b	0.10445031
113	0xbea96e5f	-0.3309202
114	0xbbd18007	-0.006393436
115	0x3d557682	0.05211497
116	0xbef78d19	-0.48349836
117	0xbd3f5f40	-0.046721697
118	0xbc566014	-0.01308443
119	0x3daafaab	0.08348592
120	0x3d9d06aa	0.07667287
121	0xbc1c8e92	-0.009555476
122	0xbd3f3eb9	-0.046690676
123	0x3de95f04	0.11395076
124	0xbdc89b2f	-0.09795224
125	0x3d63e091	0.055634085
126	0x3cec5760	0.028850257
127	0x3e2acf91	0.16680743
128	0x3e194abb	0.14969914
129	0x3e519500	0.20466995
130	0xbc776062	-0.015098663
131	0xbc65e363	-0.014031264
132	0xbd976b38	-0.07393497
133	0x3e0d993a	0.13827983
134	0xbb938685	-0.00450212
135	0xbdbe58ca	-0.09294279
136	0x3e5a81bd	0.21338554
137	0x3df9a515	0.1218969
138	0x3cf00690	0.029300004
139	0xbe9a95cd	-0.30192414
140	0x3edbb193	0.42908916
141	0xbdd701da	-0.104984
142	0xbd98d24c	-0.07461986
143	0xbe9d1d4d	-0.30686417
144	0xbe2a033c	-0.16602796
145	0xbeab3803	-0.3344117
146	0xbc35e6d2	-0.011102395
147	0xbc282cda	-0.0102646
148	0xbe42e93e	-0.19034287
149	0x3ea34096	0.31885213
150	0xbc62b05b	-0.013835992
151	0x3e05d744	0.13070399
152	0xbe11619b	-0.1419739
153	0xbe893c5d	-0.26803866
154	0xbd2962b8	-0.04135391
155	0x3d2a74f9	0.04161546
156	0xbcacd365	-0.021096895
157	0xbe0edb11	-0.13950755
158	0xbd3bfc8c	-0.045895144
159	0x3d13296c	0.035928175
160	0xbb9ea5c3	-0.0048415377
161	0xbe2c183d	-0.16806121
162	0x3cb58757	0.022159262
163	0x3de66bcc	0.11251029
164	0x3dc747a7	0.097304635
165	0xbeebd6d1	-0.4606233
166	0xbd6c6b1c	-0.057719335
167	0x3e388c97	0.18022381
168	0xbd459ba6	-0.04824414
169	0xbdd7932d	-0.105261184
170	0xbcbe49ac	-0.023228489
171	0xbd880beb	-0.06642898
172	0x3e6ae9f6	0.22940812
173	0x3eaae7aa	0.3337987
174	0xbd35376c	-0.044242308
175	0x3d2b90d1	0.041886155
176	0x3d9a1232	0.07523002
177	0xbdb6b98c	-0.08922109
178	0x3d3e575b	0.046470027
179	0xbe4c8e77	-0.19976221
180	0x3d34e762	0.044165976
181	0xbdb1bfd5	-0.08679167
182	0xbb9f1905	-0.0048552775
183	0xbe7ef5d2	-0.2489846
184	0x3e246b88	0.16056645
185	0xbe56d455	-0.20979436
186	0x3d3f993a	0.046776988
187	0x3e89cba8	0.2691319
188	0xbe2d1766	-0.16903457
189	0xbee490cb	-0.44641718
190	0x3d0b8bf8	0.03406903
191	0x3e7580bd	0.23974891
192	0xbe849ae1	-0.25899413
193	0xbf3d2163	-0.7387907
194	0x3938efd4	0.0001763695
195	0x3d14d0da	0.03633199
196	0x3d8e0fae	0.069365844
197	0x3e9cd2e2	0.3062964
198	0xbd004028	-0.031311184
199	0x3d912eb6	0.070889875
200	0xbcb023b1	-0.021501394
201	0xbf07ec69	-0.5309511
202	0xbd1c43c4	-0.038150564
203	0x3df18058	0.11792058
204	0xbc4b7c25	-0.012419735
205	0x3d5a195e	0.05324685
206	0xbce50ec3	-0.02796114
207	0x3cf91a4e	0.03040805
208	0x3cd93a03	0.02651692
209	0xbe88a4e4	-0.26688302
210	0xbd6e6382	-0.058200367
211	0xbddcf4bf	-0.10788869
212	0xbe0be5c4	-0.13661867
213	0x3e973bd8	0.29537845
214	0xbc4d0ab6	-0.012514761
215	0xbda53793	-0.080672406
216	0xbe48fc82	-0.19627574
217	0xbf2b14f4	-0.66828847
218	0x3be06424	0.006847875
219	0xbd94a27c	-0.07257554
220	0xbe13b72f	-0.14425348
221	0x3ec929d4	0.39289725
222	0xbd8f1f9c	-0.06988451
223	0x3d4fe3cb	0.05075435
224	0xbd7a86e3	-0.061163794
225	0xbeffc570	-0.4995532
226	0xbc58804b	-0.013214181
227	0xbdfcd9fd	-0.123462655
228	0xbd3671bc	-0.04454206
229	0x3d821436	0.06351511
230	0xbce501ae	-0.027954902
231	0x3d1dc853	0.038521122
232	0x3c98798f	0.018612651
233	0xbe37ff1d	-0.17968412
234	0x3d525104	0.051346794
235	0xbc8ad836	-0.0169488
236	0x3d8aaf4d	0.06771717
237	0x3ecf65a6	0.4050724
238	0xbc477a0b	-0.012175093
239	0x3ddb8da4	0.10720375
240	0x3e45f9c6	0.19333562
241	0x3f2bbf3c	0.67088675
242	0x3cc2e101	0.02378893
243	0x3e0d62df	0.13807248
244	0x3e2d0b0e	0.16898748
245	0x3ebbf052	0.36706787
246	0xbc30fb91	-0.010802166
247	0x3e1778df	0.14792202
248	0xbb9cfbf5	-0.004790778
249	0x3f147f98	0.5800719
250	0x3d374936	0.044747554
251	0xbde8ce82	-0.11367513
252	0x3d6c30b9	0.057663653
253	0x3eb27e5b	0.34862027
254	0xbd849be5	-0.06475047
255	0xbe0749a4	-0.13211685

fcs1.bias f4 [128]
0	0xbd6f11af	-0.058366474
1	0xbe72f788	-0.23727238
2	0xbcae34e9	-0.021265464
3	0xbd4f9c40	-0.05068612
4	0xbfaf643e	-1.3702466
5	0xbe113c64	-0.14183193
6	0x3da78221	0.08179117
7	0xbddfb9f9	-0.10924143
8	0xbe5d468f	-0.21608947
9	0xbd957240	-0.07297182
10	0x3e577b37	0.21043096
11	0xbec4693d	-0.3836154
12	0xbc206cee	-0.009791596
13	0xbe74d3a6	-0.23908862
14	0xbe7cf2d2	-0.24702004
15	0x3e5097f6	0.20370468
16	0xbe21fed3	-0.15819864
17	0x3d41da06	0.047327064
18	0xbf0ec27c	-0.5576551
19	0x3e584d39	0.21123208
20	0xbf0793d0	-0.5295992
21	0x3e8880c0	0.26660728
22	0xbe698d0e	-0.22807714
23	0x3e1d2653	0.15346651
24	0x3e608fc4	0.21929842
25	0xbe562813	-0.20913725
26	0xbf56c3c4	-0.83892465
27	0xbef6c281	-0.4819527
28	0x3ede330f	0.4339833
29	0xbefc40c7	-0.4926817
30	0x3d279253	0.04091103
31	0x3e7986ba	0.243678
32	0xbed63c29	-0.41842774
33	0x3dc24819	0.09486408
34	0x3e3dffdf	0.18554638
35	0xbf1770a7	-0.5915627
36	0x3e86fd70	0.26365232
37	0xbc87897d	-0.016545052
38	0xbf1e0801	-0.61730963
39	0x3e3f1469	0.1866013
40	0x3eaf2a2e	0.34211868
41	0xbe9b7825	-0.303651
42	0xbe801bde	-0.2502126
43	0xbe47554f	-0.19466136
44	0xbf1ab4a4	-0.60431886
45	0xbdc77b1f	-0.0974028
46	0xbe4d43a4	-0.20045334
47	0x3dbc8c2f	0.092064254
48	0x3e3b957c	0.18318743
49	0xbd28f6a5	-0.041250844
50	0xbdf3574a	-0.118818834
51	0x3d8d892b	0.06910928
52	0xbe32f6ee	-0.17477009
53	0xbe914246	-0.28370875
54	0x3ed45ab8	0.41475463
55	0x3e483ced	0.19554491
56	0xbeba6c64	-0.3641082
57	0xbe8c67ae	-0.2742285
58	0xbc91620a	-0.017746944
59	0xbf087156	-0.53297937
60	0x3e942d78	0.2894094
61	0xbe800334	-0.25002444
62	0xbd1dfc4a	-0.03857068
63	0x3e8ffa4c	0.2812065
64	0x3e4d2b7d	0.2003612
65	0xbe551f52	-0.20812729
66	0xbe86dfe8	-0.26342702
67	0xbf002726	-0.50059736
68	0xbf05b4b4	-0.52228856
69	0xbf0b7307	-0.5447239
70	0xbd08779a	-0.033317186
71	0xbe9b6f55	-0.30358377
72	0xbf0be71d	-0.54649526
73	0x3ed17a09	0.40913418
74	0xbadc50a8	-0.0016808705
75	0xbd859dba	-0.065242246
76	0x3d6538cc	0.05596237
77	0xbe93b28a	-0.28847152
78	0x3ec171f7	0.3778226
79	0xbd1225bc	-0.035680518
80	0xbd04acdc	-0.032391414
81	0xbee46e23	-0.44615278
82	0xbd4e7258	-0.050402015
83	0x3e0d6fda	0.13812199
84	0x3e94c59a	0.29057008
85	0xbf214f8c	-0.63012004
86	0x3e3e005d	0.18554826
87	0xbc2db82c	-0.010602992
88	0xbeb3f7b8	-0.35149932
89	0xbd5eb3aa	-0.05437056
90	0x3da1f3c7	0.07907825
91	0xbe6c2348	-0.23060334
92	0xbec76139	-0.38941363
93	0xbe4cb6a0	-0.19991541
94	0xbe4f1a0b	-0.20224778
95	0xbe28d6b6	-0.16488156
96	0x3dbe907a	0.093049005
97	0xbe030fb5	-0.1279896
98	0x3f20dda4	0.62838197
99	0xbee4ce2f	-0.44688556
100	0xbd427aa1	-0.04748023
101	0xbe0188c0	-0.12649822
102	0xbe6b22cb	-0.22962491
103	0xbda9390c	-0.08262834
104	0xbd425327	-0.04744258
105	0xbea37928	-0.31928372
106	0xbe859710	-0.26091814
107	0xbea0dcec	-0.3141855
108	0xbdaa6604	-0.08320239
109	0xbeb49c1c	-0.35275352
110	0x3e105364	0.14094311
111	0xbedd77b1	-0.4325538
112	0x3e9dcd3c	0.30820644
113	0xbe0fe802	-0.14053348
114	0x3f16ae6f	0.58859915
115	0x3e36a7df	0.17837475
116	0xbe498fe1	-0.19683792
117	0xbd8dea44	-0.06929448
118	0xbec1ecc8	-0.37875962
119	0xbe998349	-0.29982975
120	0xbdd17aa7	-0.10228472
121	0xbe0dd6e2	-0.13851503
122	0x3ee61b25	0.44942585
123	0x3e1a32b5	0.15058406
124	0x3e578278	0.21045864
125	0xbe9766ce	-0.2957062
126	0xbdcc6a56	-0.099812195
127	0xbec827e3	-0.3909293

fc2.weight f4 [96, 132]
0	0x3c7a5c59	0.015280806
1	0xbcc0dc1b	-0.023542454
2	0x3dca2e7a	0.09872146
3	0xbd65a3b6	-0.05606433
4	0xbd8a956d	-0.06766782
5	0xbe7ff71a	-0.24996606
6	0xbc42eb65	-0.011896943
7	0xbde02d37	-0.10946124
8	0xbd5a7b49	-0.05334023
9	0xbd65d5c0	-0.05611205
10	0x3e06831d	0.13135953
11	0xbe6ae773	-0.22939853
12	0x3c6b784b	0.014371942
13	0x3d8648d1	0.065568574
14	0xbe1c12b8	-0.15241516
15	0x3d2fd95f	0.04293191
16	0xbd35cd11	-0.04438502
17	0x3de6284e	0.11238156
18	0xbdce5f4f	-0.100767724
19	0x3d6ebd9e	0.0582863
20	0x3d23e7ea	0.040016092
21	0x3da75a00	0.08171463
22	0xbe2f28f6	-0.17105469
23	0x3d0c8ff4	0.034316972
24	0xbc91a61a	-0.017779399
25	0xbe0eaba4	-0.13932663
26	0xbd2ed748	-0.042685777
27	0xbdcb045c	-0.09912941
28	0x3d065583	0.032796394
29	0x3d031e00	0.032011032
30	0xbe8fa58a	-0.28055984
31	0x3dbc9cc5	0.09209589
32	0xbd77012d	-0.060303856
33	0xbee53849	-0.44769505
34	0x3e66df55	0.22546132
35	0xbd34d0c8	-0.04414442
36	0xbbbc7264	-0.005750941
37	0x3e052e77	0.13006006
38	0x3e8c8447	0.2744467
39	0xbaed4fd7	-0.0018105459
40	0x3e2d0e07	0.16899882
41	0x3e307972	0.17233828
42	0xbe1c07fa	-0.15237418
43	0xbc516338	-0.012780003
44	0x3d4cae6b	0.049971025
45	0xbb0ad0a9	-0.00211815
46	0xbd2f893d	-0.04285549
47	0x3e3d0c5a	0.18461743
48	0xbe0bac88	-0.13640034
49	0x3d583e82	0.052793987
50	0xbe309daa	-0.17247644
51	0x3db131a4	0.08652046
52	0xbcaf65f6	-0.021410923
53	0x3d047a79	0.03234336
54	0x3e012990	0.12613511
55	0xbd9e238e	-0.07721625
56	0x3d48d09b	0.049027067
57	0xbde74207	-0.112918906
58	0x3c0ade2a	0.00847582
59	0x3d84c047	0.064819865
60	0x3cdc5f62	0.02690095
61	0x3bd9d2c1	0.0066474383
62	0xbd6b2ec6	-0.057417654
63	0xbd8127c8	-0.06306416
64	0xbd950015	-0.07275406
65	0xbe99d43d	-0.30044737
66	0xbcc94512	-0.024569068
67	0xbcc123a7	-0.02357657
68	0xbcc78c0c	-0.024358772
69	0xbe9143c9	-0.28372028
70	0x3d526c18	0.051372617
71	0xbcbbee5a	-0.022940803
72	0xbd872517	-0.06598871
73	0xbead6ac6	-0.33870524
74	0x3bd98a8e	0.0066388315
75	0xbdf98e02	-0.12185289
76	0x3dc465cf	0.09589731
77	0x3e365f0f	0.178097
78	0x3ca7f0b4	0.020500518
79	0xbe25e50f	-0.1620066
80	0xbcc76b16	-0.024343055
81	0xbe711d08	-0.23546231
82	0xbeee3868	-0.4652741
83	0xbe7eb82a	-0.2487494
84	0xbd6cff9c	-0.057860956
85	0xbe29b6d7	-0.16573654
86	0xbd569e3f	-0.05239701
87	0x3e59be8c	0.21264094
88	0xbdcd5595	-0.10026089
89	0xbd39c0e6	-0.045349978
90	0x3d0dcc53	0.034618687
91	0x3d1311a7	0.035905506
92	0xbd05f694	-0.03270586
93	0xbe0e9dd4	-0.13927394
94	0xbdf2a127	-0.118471436
95	0x3db929c7	0.090411715
96	0xbe13c3ba	-0.14430133
97	0xbd9cd0e5	-0.07657031
98	0xbc7c0a18	-0.015383266
99	0xbe15f1e8	-0.14643061
100	0xbc141bd5	-0.009039839
101	0xbcb52828	-0.022113875
102	0x3d95cef9	0.073148675
103	0x3d1c7e3f	0.038206335
104	0x3b8fff3d	0.0043944404
105	0x3d75a6ea	0.059973635
106	0x3d1995f9	0.03749654
107	0x3e98e21a	0.29860002
108	0xbd84523f	-0.06461
109	0xbe1d3176	-0.15350899
110	0xbe3b5a31	-0.18296124
111	0xbdd20969	-0.10255701
112	0xbc7ba084	-0.015358094
113	0xbde1408e	-0.10998641
114	0xbdd8ab65	-0.10579566
115	0xbdb50b32	-0.08840026
116	0x3d15558b	0.036458533
117	0xbd00d402	-0.031452186
118	0x3db7c038	0.0897221
119	0xbe571cc7	-0.21007071
120	0xbe2b626a	-0.1673676
121	0xbe5a1ae8	-0.21299326
122	0xbe55cfa7	-0.20879994
123	0xbcd595aa	-0.026072342
124	0x3e12e13f	0.14343737
125	0xbdd72a2d	-0.10506091
126	0xbe7a4f0e	-0.2444422
127	0xbd99072e	-0.074720725
128	0x3d9b7391	0.07590402
129	0x3c647184	0.01394308
130	0x3d93bd84	0.072138816
131	0xbcfdba86	-0.03097273
132	0xbc85e319	-0.01634364
133	0xbb74c7ef	-0.0037350615
134	0xbd65be44	-0.056089655
135	0xbd6ea905	-0.05826666
136	0x3e5d3bc1	0.21604826
137	0x3d54e258	0.05197367
138	0xbc90cc85	-0.017675648
139	0x3de2166f	0.11039435
140	0x3bf0e4bb	0.0073514855
141	0xbd27f78f	-0.041007575
142	0x3d9998d0	0.0749985
143	0x3b72716d	0.0036993877
144	0xbdcfe125	-0.10150365
145	0xbd7424f7	-0.059605565
146	0xbc3370fd	-0.0109522315
147	0x3d8fdee5	0.07024936
148	0x3e4f9f5d	0.20275636
149	0xbe063dad	-0.13109465
150	0xbb451090	-0.0030069686
151	0xbd3b220d	-0.04568677
152	0xbcbb4d35	-0.022863964
153	0xbdb06c91	-0.086144574
154	0x3e19ccc4	0.15019518
155	0x3d65b97d	0.0560851
156	0x3d087875	0.033318
157	0xba705201	-0.0009167493
158	0xbcf7e7a1	-0.030261816
159	0xbccabd33	-0.02474842
160	0x3dee8ad2	0.116475716
161	0xbda525cb	-0.08063849
162	0xbc316f12	-0.010829704
163	0xbc77a752	-0.015115576
164	0xbd8d12a7	-0.06888323
165	0xbdc70d7e	-0.0971937
166	0xbeb89703	-0.36052713
167	0x3d7bc0d7	0.061463203
168	0x3dfc8d3f	0.12331628
169	0xbb199c1a	-0.002343899
170	0x3e8b4dad	0.272077
171	0xbd0da759	-0.034583423
172	0x3cc22382	0.023698572
173	0xbd0676bf	-0.03282809
174	0xbdd6bcd3	-0.10485234
175	0x3dc7ee1f	0.09762215
176	0x3deff849	0.117172785
177	0xbec4c466	-0.3843109
178	0x3d390ba9	0.045177136
179	0x3dce6a15	0.10078827
180	0x3d90a644	0.07062963
181	0xbd835199	-0.06412048
182	0x3d2f5710	0.04280764
183	0xbd8e8ee3	-0.06960847
184	0x3c0bb595	0.008527179
185	0x3dc88854	0.097916275
186	0xbc85d945	-0.016338954
187	0x3e5e590b	0.21713655
188	0xbe1b2b92	-0.1515334
189	0xbccbab08	-0.024861827
190	0xbe0c6b17	-0.13712727
191	0x3cd0d088	0.02549006
192	0x3d20b8c7	0.039238717
193	0x3d9c1ad4	0.076223046
194	0xbd8c7253	-0.06857743
195	0x3de88990	0.11354363
196	0xbbe7fd48	-0.007079754
197	0xbd9b8b28	-0.07594901
198	0xbd79e395	-0.061008055
199	0xbd9e5fa3	-0.07733085
200	0xbc41a0a5	-0.011818086
201	0x3d974e9f	0.07388043
202	0xbe405b6f	-0.18784879
203	0x3e3e90c8	0.18609917
204	0xbcb97d30	-0.022642702
205	0x3c802dc5	0.015646825
206	0xbd8e523e	-0.0694928
207	0xbd83948f	-0.0642482
208	0xbccfc8f8	-0.025364384
209	0xbdcb5c9f	-0.099297754
210	0x3d651437	0.05592748
211	0x3dc841a2	0.097781435
212	0xbd2eb264	-0.042650595
213	0x3e388425	0.18019159
214	0x3dde1a72	0.10844888
215	0x3e10236b	0.14076011
216	0x3beeff6e	0.007293633
217	0xbd184d1b	-0.03718291
218	0x3cf005d5	0.029299656
219	0x3c904950	0.017613083
220	0x3e61b7a9	0.22042717
221	0xbc9ecd7d	-0.019385094
222	0x3e2c2caf	0.1681392
223	0xbc5a5233	-0.013325262
224	0x3bda8819	0.006669056
225	0xbd0dd3b3	-0.03462572
226	0x39886fea	0.00026023324
227	0x3d13775f	0.036002513
228	0x3d272063	0.04080237
229	0xbc97ee89	-0.01854636
230	0x3e0e802a	0.13916078
231	0x3e6d38e2	0.2316623
232	0xbe2e1b7f	-0.17002676
233	0xbba16c2b	-0.0049262247
234	0x3e86b0b1	0.2630668
235	0x3c6dce25	0.014514481
236	0xbe2360d3	-0.15954904
237	0xbabfc4ce	-0.0014630796
238	0x3dda590e	0.10661517
239	0xbd59577d	-0.05306195
240	0x3caec2ff	0.021333216
241	0x3d71fd42	0.059079416
242	0xbcae88cf	-0.02130547
243	0x3cd09405	0.025461206
244	0x3dedd7b9	0.116134115
245	0xbc59144d	-0.013249469
246	0xbd8041c7	-0.06262546
247	0xbc8769c1	-0.01652992
248	0xbd635434	-0.055500224
249	0xbd944ebe	-0.072415814
250	0x3d579a62	0.052637465
251	0x3d328c0d	0.043590594
252	0x3e23c03e	0.15991303
253	0xbe5d80e0	-0.21631193
254	0x3cee8631	0.029116722
255	0xbd3aa03a	-0.04556296

fc2.bias f4 [96]
0	0xbce79bae	-0.028272476
1	0xbdad2f84	-0.084563285
2	0xbe1e07e9	-0.15432705
3	0xbd4ca5a1	-0.049962644
4	0xbd3ecccf	-0.04658204
5	0xbdc5e90c	-0.09663591
6	0x3d977f32	0.073973075
7	0xbe4b14b7	-0.19832121
8	0xbe3d862b	-0.18508212
9	0xbe06357a	-0.13106337
10	0xbd551f90	-0.052032053
11	0xbdb264ab	-0.08710607
12	0xbdd775cc	-0.10520515
13	0xbd712926	-0.058877133
14	0xbd347f1a	-0.044066526
15	0xbdf45ef3	-0.119321726
16	0xbd481abf	-0.048853632
17	0xbe77699a	-0.24161378
18	0xbe763ed6	-0.24047408
19	0xbc868f44	-0.016425736
20	0xbc66add2	-0.014079528
21	0x3d4709cd	0.04859333
22	0xbd2d5de8	-0.042325884
23	0xbe0411d9	-0.12897433
24	0xbe15fa09	-0.14646162
25	0xbd9a4046	-0.075317904
26	0xbcfa4726	-0.030551504
27	0x3d5f1a44	0.05446841
28	0xbe2b5d26	-0.16734752
29	0xbdac98e8	-0.08427602
30	0xbbda6de4	-0.006665932
31	0xbd204485	-0.039127845
32	0xbca0285f	-0.0195505
33	0xbda3122e	-0.07962452
34	0x3c804cd7	0.01566164
35	0xbddfcd99	-0.109278865
36	0x3b52d1c0	0.0032168478
37	0xbe3db2e1	-0.18525268
38	0xbdc9e33f	-0.09857797
39	0xbd8dcb50	-0.069235444
40	0xbe16db0b	-0.14731996
41	0x3c8305f2	0.015994046
42	0xbe2c7e06	-0.16844949
43	0xbe624300	-0.22095871
44	0xbdf8ae5d	-0.12142632
45	0xbc02be99	-0.007980012
46	0xbd809064	-0.0627754
47	0xbe41c83c	-0.1892404
48	0xbe85f2a6	-0.2616169
49	0xbe7acd40	-0.24492359
50	0xbde40afb	-0.11134907
51	0xbcfd28ce	-0.030903246
52	0xbdc5b89b	-0.09654351
53	0xbddd3389	-0.10800845
54	0xbe08f343	-0.13374047
55	0xbdbf0b86	-0.0932837
56	0xbd9fcce6	-0.07802753
57	0xbe1dab3d	-0.15397353
58	0xbdc69969	-0.096972294
59	0xbd96a839	-0.07356305
60	0xbd4ddf81	-0.050261978
61	0xbc31c707	-0.0108506745
62	0xbdb53201	-0.08847428
63	0xbe30f52b	-0.17281024
64	0xbddd0c60	-0.10793376
65	0x3cb94a57	0.022618456
66	0xbd670fc5	-0.056411523
67	0xbe2b1bf0	-0.16709876
68	0xbd40b07d	-0.047043312
69	0xbe113111	-0.14178874
70	0xbe80f93e	-0.25190157
71	0xbdc6048b	-0.09668835
72	0xbc426e0c	-0.0118670575
73	0xbc8cf913	-0.017208612
74	0xbd7e36e5	-0.06206407
75	0xbe008ec6	-0.12554464
76	0x3c1dd7e1	0.009633989
77	0xbe5bb229	-0.21454681
78	0xbcc8cc7e	-0.024511572
79	0xbdb4c2f9	-0.088262506
80	0xbdc99ef0	-0.09844768
81	0xbe0f0ae6	-0.13969001
82	0xbe547908	-0.20749295
83	0xba928618	-0.0011178879
84	0xbdd4de2a	-0.10393937
85	0xbd92f6b4	-0.07175961
86	0xbe80c19e	-0.25147718
87	0xbe51a465	-0.20472868
88	0xbe4f9835	-0.20272906
89	0x3ba3713b	0.0049878634
90	0xbdf83b86	-0.12120728
91	0xbe7bb2f6	-0.24579987
92	0xbeaa7907	-0.33295462
93	0xbe1750e4	-0.14776951
94	0xbdc2739b	-0.09494706
95	0x3d00e30c	0.03146653

fc3.weight f4 [1, 96]
0	0x3d265548	0.040608674
1	0xbd23a131	-0.039948646
2	0x3d80b4a7	0.06284457
3	0x3d117298	0.035509676
4	0x3d2d1eb4	0.04226561
5	0x3d67e4dc	0.05661474
6	0x3cf0651f	0.029345093
7	0x3d8e8d3f	0.06960534
8	0x3d86b490	0.06577408
9	0xbd39d3ba	-0.045367934
10	0x3cf4cd21	0.02988297
11	0x3cf218d7	0.02955286
12	0x3ce5eb5f	0.028066335
13	0xbcc3e77e	-0.023914095
14	0x3d087a68	0.03331986
15	0x3cf12a9e	0.029439267
16	0x3d747e23	0.059690606
17	0xbda3ddf7	-0.08001321
18	0xbdf23353	-0.118261956
19	0xbcfe440a	-0.031038303
20	0xbd85ad08	-0.06527144
21	0x3d2ead0a	0.04264549
22	0xbcf6edf2	-0.030142758
23	0x3cc29716	0.023753684
24	0xbdaffd15	-0.085931934
25	0x3cfcaef2	0.03084514
26	0xbcc8bbb0	-0.024503559
27	0xbd2b43a8	-0.04181257
28	0xbd765600	-0.06014061
29	0x3d6002a2	0.05469001
30	0xbd1fffc5	-0.03906228
31	0xbc857697	-0.0162919
32	0xbce8f719	-0.028438138
33	0x3cce1c27	0.025159908
34	0xbcc46d6b	-0.023977956
35	0x3d1c6aa2	0.03818763
36	0xbd1a0a6b	-0.03760759
37	0x3d9d0c07	0.0766831
38	0xbcb7f5ab	-0.02245601
39	0x3d04a64c	0.032385156
40	0xbd3ff16f	-0.04686111
41	0x3c8b070f	0.01697114
42	0xbd016c75	-0.031597573
43	0x3d9c7ebf	0.076413624
44	0xbccecc84	-0.025244005
45	0x3cf849b8	0.03030859
46	0x3d6e2fe8	0.058151156
47	0xbd798b86	-0.060924076
48	0x3e166e0b	0.14690416
49	0x3d98546c	0.07437977
50	0xbd377fff	-0.0447998
51	0xbcb63084	-0.02223993
52	0x3cda51d1	0.026650341
53	0x3ce0ad0a	0.027426261
54	0x3d49b8fe	0.049248688
55	0xbcf86e8d	-0.030326152
56	0xbd225fef	-0.03964227
57	0xbd7c9f83	-0.06167556
58	0xbd0ff44a	-0.03514508
59	0xbd4ad956	-0.049523674
60	0xbd30c38a	-0.04315523
61	0xbd81b3c2	-0.06333114
62	0xbd05da42	-0.03267885
63	0x3da61ddd	0.08111165
64	0x3c92a970	0.01790306
65	0x3ce3b7d1	0.027797611
66	0x3d4d35c5	0.050100107
67	0x3d0550a5	0.03254761
68	0xbd162e3c	-0.036665186
69	0xbdbe2f67	-0.09286385
70	0x3e08a5c2	0.13344482
71	0xbdd130fd	-0.10214422
72	0xbd16be02	-0.0368023
73	0x3c9bdfac	0.019027553
74	0x3d218033	0.0394289
75	0x3dd30ca3	0.10305145
76	0xbd12a12f	-0.035798248
77	0x3e114dc5	0.14189823
78	0x3cf0e49e	0.029405888
79	0x3d8f5261	0.069981344
80	0xbd467979	-0.04845569
81	0x3d0e7782	0.03478194
82	0xbcfaa603	-0.030596739
83	0xbcc49e90	-0.02400139
84	0x3d313453	0.04326279
85	0x3d3b5f8d	0.04574542
86	0x3de26d75	0.110560335
87	0x3d66d2d1	0.056353394
88	0x3d5bd4c7	0.053669717
89	0x3d00f589	0.03148416
90	0xbd81bd10	-0.06334889
91	0x3dfec1e6	0.12439327
92	0x3d47b069	0.048752222
93	0xbd0bc71e	-0.03412544
94	0xbd2e87e5	-0.042610068
95	0xbce4fda5	-0.027952978

bn1.weight f4 [128]
0	0x3e3ecf21	0.18633701
1	0x3e83f8aa	0.25775653
2	0x3e83ec9f	0.25766465
3	0x3e377165	0.1791435
4	0x3eb17499	0.3465927
5	0x3ec70ce5	0.38877025
6	0x3f285a42	0.6576272
7	0x3e3cff6f	0.18456815
8	0x3e198c54	0.14994937
9	0x3e2d1004	0.1690064
10	0x3e34b61a	0.17647591
11	0x3e2c5012	0.1682742
12	0x3e2748a9	0.16336311
13	0x3ebf02b5	0.37306753
14	0x3e948f3a	0.29015523
15	0x3e4906fa	0.19631568
16	0x3e442b3b	0.19157116
17	0x3e5cf6da	0.21578541
18	0x3e9a6377	0.3015401
19	0x3e4c861b	0.19973032
20	0x3e3de47e	0.18544194
21	0x3e115e63	0.14196162
22	0x3e2316c0	0.15926647
23	0x3f0adfac	0.54247546
24	0x3e67d2ab	0.22638957
25	0x3e8cb810	0.2748418
26	0x3f0785e0	0.5293865
27	0x3f4d6946	0.8023876
28	0x3e600994	0.21878654
29	0x3e5cf235	0.2157677
30	0x3e62ad45	0.2213641
31	0x3e7ee1a8	0.24890769
32	0x3e525375	0.20539649
33	0x3e03648b	0.12831323
34	0x3f0cbe38	0.5497775
35	0x3f30d571	0.69075686
36	0x3e6777fd	0.22604366
37	0x3e1838b3	0.14865379
38	0x3ee0e916	0.4392783
39	0x3e884507	0.26615164
40	0x3e274eb8	0.16338623
41	0x3e70eb75	0.2352732
42	0x3eb5475c	0.35406005
43	0x3e94f82b	0.29095587
44	0x3eec179e	0.46111768
45	0x3f542d7b	0.828819
46	0x3ea3d570	0.31998777
47	0x3e372c2f	0.17887948
48	0x3e530132	0.20605925
49	0x3e7af781	0.24508478
50	0x3e460ac1	0.1934004
51	0x3eb0debf	0.34544942
52	0x3e07dcef	0.13267873
53	0x3e4247f7	0.18972765
54	0x3e1a90e1	0.1509433
55	0xbe1f9e8c	-0.15587825
56	0x3e38aa38	0.18033683
57	0x3e5b3ff5	0.21411116
58	0x3f1ad6c9	0.60483986
59	0x3e3e9dad	0.18614836
60	0x3e4d2bc1	0.20036222
61	0x3e27463f	0.1633539
62	0x3ee87d4d	0.45408097
63	0x3f08a76b	0.5338046
64	0x3e4ca0a0	0.19983149
65	0x3e0669a0	0.1312623
66	0x3e8d4aa7	0.27596018
67	0x3e4f145a	0.20222607
68	0x3e93461a	0.2876442
69	0x3eb23389	0.34804943
70	0x3e5a5f2f	0.21325372
71	0x3e926c53	0.2859827
72	0x3e6a3706	0.22872552
73	0x3f027c2f	0.5097074
74	0x3dffe7eb	0.12495407
75	0x3e36253e	0.17787644
76	0x3e7457ad	0.2386157
77	0x3e7d9c1c	0.24766582
78	0x3e493294	0.196482
79	0x3e60cbf2	0.21952799
80	0x3e49be39	0.1970147
81	0x3e4d47f8	0.20046985
82	0x3e6625c3	0.22475342
83	0x3e76de66	0.24108276
84	0x3ee1002f	0.43945453
85	0x3e3684ba	0.17824069
86	0x3e715664	0.23568112
87	0x3e6858b6	0.2269009
88	0x3dda8fa9	0.10671932
89	0x3e532539	0.20619668
90	0x3e399045	0.1812144
91	0x3e8889d2	0.2666765
92	0x3e1b0982	0.15140346
93	0x3f2dda02	0.6791078
94	0x3e8e9f61	0.2785597
95	0x3eccd583	0.40006647
96	0x3e26e87b	0.16299622
97	0x3e872357	0.2639415
98	0x3e5dac25	0.21647699
99	0x3f434052	0.7627002
100	0x3e3ebbbd	0.18626304
101	0x3e5555c4	0.20833498
102	0x3f7c310c	0.9851234
103	0x3ea52fa5	0.32262912
104	0x3eb332ac	0.34999597
105	0x3e8c16d4	0.27361166
106	0x3dfa841e	0.122322306
107	0x3e566085	0.20935257
108	0x3e55b14c	0.20868415
109	0x3e11e816	0.1424869
110	0x3e6470c8	0.22308648
111	0x3f7e56e5	0.9935134
112	0x3e853961	0.2602034
113	0x3e4ec61b	0.20192759
114	0x3ec0f35c	0.37685668
115	0x3e649db6	0.22325787
116	0x3e75c554	0.24001056
117	0x3f02db4d	0.51115876
118	0x3e2b82eb	0.1674916
119	0x3e590e01	0.21196748
120	0x3e52a8ed	0.20572253
121	0x3e3184b7	0.17335783
122	0x3e34ac4c	0.17643851
123	0x3e7042af	0.23462938
124	0x3e15e0b4	0.14636499
125	0x3e0faab9	0.1402997
126	0x3e497d4f	0.19676708
127	0x3e5c1345	0.21491726

bn1.bias f4 [128]
0	0x3d053e1e	0.032529943
1	0x3c9e11e9	0.01929565
2	0x3cbf6903	0.023365503
3	0xbce10768	-0.027469352
4	0xbc8c7b1c	-0.017148547
5	0x3de00c82	0.10939886
6	0x3dde696d	0.10859952
7	0x3cac6acf	0.021047024
8	0x3d8f3269	0.06992037
9	0x3c966d5c	0.018362693
10	0xbd84b30f	-0.06479465
11	0x3dbbd6a3	0.09171798
12	0xbccd4c2e	-0.02506074
13	0x3e2352fc	0.15949625
14	0x3dd800da	0.105470374
15	0x3d78d24b	0.060747426
16	0x3af67038	0.0018801754
17	0x3d892032	0.06695594
18	0x3b38f9b0	0.0028224997
19	0x3bfd89e2	0.007737384
20	0x3d253fa2	0.040343888
21	0x3d0b9c35	0.034084518
22	0x3db678e4	0.08909777
23	0x3d741eb9	0.059599612
24	0x3d402f1e	0.046919934
25	0x3d8f15c1	0.06986571
26	0x3e48b398	0.1959976
27	0x3ea25af8	0.3171003
28	0x3abb7c2d	0.0014303975
29	0x3d3baf1c	0.045821294
30	0x3d17b0c0	0.037033796
31	0xbb4b2c85	-0.0031001878
32	0x3d573098	0.052536577
33	0x3cc4593c	0.023968332
34	0x3d06cf0a	0.03291229
35	0xb9a9b3e2	-0.00032368215
36	0xbd1fef39	-0.0390465
37	0x3d7c5a70	0.061609685
38	0x3dd31527	0.10306769
39	0x3d8f9649	0.070110865
40	0x3cd99e11	0.02656463
41	0x3c4b20db	0.01239797
42	0x3dff6fc7	0.12472492
43	0x3de71dd0	0.11284983
44	0x3dd83dd1	0.105586655
45	0x3da4e065	0.08050612
46	0x3e319651	0.17342497
47	0x3de7bf95	0.11315838
48	0x3d4559ab	0.048181217
49	0x3d11a192	0.035554476
50	0x3be427f3	0.00696277
51	0x3dcfb1d8	0.10141343
52	0xbd2d0c66	-0.042248152
53	0x3da17a2c	0.078846306
54	0x3cecbde2	0.028899137
55	0xbd7a56a1	-0.061117772
56	0xbce28ce8	-0.02765508
57	0x3defd8ab	0.11711248
58	0x3da69e89	0.08135707
59	0x3d552d4c	0.05204515
60	0x3d65cdf4	0.056104615
61	0x3deefce6	0.1166933
62	0x3e387a52	0.18015411
63	0x3d20d352	0.03926403
64	0x3d489167	0.04896679
65	0x3bc12095	0.0058937767
66	0x3d94a317	0.072576694
67	0xbd96a845	-0.073563136
68	0x3dd58f2d	0.10427699
69	0x3e156d9a	0.14592591
70	0x3ce61f22	0.028091017
71	0x3c785748	0.015157528
72	0x3d0e4e83	0.034742843
73	0x3df893ec	0.12137589
74	0xbd500144	-0.050782457
75	0x3da76742	0.08173992
76	0x3c1ca6eb	0.009561281
77	0x3d914437	0.07093089
78	0x3d56063f	0.05225205
79	0x3da531fe	0.08066176
80	0xbd2d0c23	-0.042247903
81	0x3b8bbdbf	0.004264563
82	0x3d307d9c	0.04308854
83	0x3dc1a22e	0.094547614
84	0x3d6cb15b	0.057786327
85	0x3db6db0e	0.089285
86	0x3d806fff	0.062713616
87	0x3d8eab62	0.069662824
88	0xbdca8ae6	-0.09889774
89	0xbd301872	-0.042992063
90	0xbd5767ce	-0.05258923
91	0x3cd0cfa8	0.025489643
92	0x3d98e925	0.07466344
93	0x3e436bd0	0.19084096
94	0x3c83559b	0.01603203
95	0x3ddf17e1	0.108932264
96	0x3d66b679	0.056326363
97	0x3e006011	0.12536646
98	0xbc9fec0f	-0.019521741
99	0x3da7add1	0.0818745
100	0x3cf418a4	0.029796906
101	0xbd4954b7	-0.049153056
102	0x3da6397a	0.081164315
103	0x3e1650fe	0.14679334
104	0x3da1c154	0.078982025
105	0x3d915738	0.07096714
106	0x3cb3d954	0.021954216
107	0x3db9d821	0.090744264
108	0x3d191375	0.03737207
109	0xbcac287a	-0.021015394
110	0x3d92acad	0.071618415
111	0x3e8726c2	0.26396757
112	0x3d0e78f7	0.03478333
113	0x3d94e1cf	0.07269632
114	0x3de020e8	0.10943776
115	0x3da6143c	0.08109328
116	0x3d225ce3	0.039639365
117	0x3d9a6cdf	0.07540297
118	0x3cdac698	0.026706025
119	0xbb84a885	-0.0040484094
120	0xbc4994b9	-0.012303525
121	0xba9befce	-0.0011897029
122	0xbd622ff1	-0.0552215
123	0x3c247aaf	0.010039016
124	0x3d2eae27	0.042646553
125	0x3c8abf33	0.016936874
126	0x3dae67a0	0.08515859
127	0xbd93810a	-0.072023466

bn1.running_mean f4 [128]
0	0x3f6d07ba	0.92589915
1	0x409a86f7	4.828975
2	0x3f928a7d	1.1448513
3	0x3fc2c04a	1.5214932
4	0x410d13e2	8.817354
5	0x4025e7a5	2.5922635
6	0x3fa50ce5	1.289456
7	0x3f33c1eb	0.7021777
8	0x3fe84647	1.8146447
9	0x4030e14c	2.763751
10	0x3f0ee6ef	0.55821127
11	0x402b03d4	2.6721087
12	0x3efe34ab	0.49649557
13	0x40a15faf	5.04293
14	0x3eff296e	0.49836296
15	0x3f163f07	0.5868992
16	0x405cb300	3.4484253
17	0x3f13bd75	0.57710963
18	0x400625cd	2.0960572
19	0x3f0b9dca	0.5453764
20	0x3f889516	1.0670497
21	0x3f244b3f	0.64177316
22	0x3fe74e16	1.8070705
23	0x3f84394c	1.0329986
24	0x3fe29c1d	1.7703892
25	0x4061fd63	3.5310905
26	0x4052dd5e	3.2947612
27	0x3e9ba95f	0.30402657
28	0x3ee547a0	0.44781208
29	0x3fa9db69	1.3270084
30	0x40ab410b	5.35169
31	0x3f566d28	0.8376031
32	0x3f9c3a34	1.2205262
33	0x3ec009a3	0.37507352
34	0x3fb7f0cd	1.4370362
35	0x3f1fd087	0.6242756
36	0x40090e78	2.141508
37	0x3ea7cdf6	0.32774323
38	0x3efe99e8	0.49726796
39	0x3e68780b	0.22702043
40	0x3e9d0c64	0.30673516
41	0x40201ce8	2.5017643
42	0x3f9c10e7	1.2192658
43	0x40350c6d	2.8288834
44	0x40258c8f	2.586704
45	0x4129b810	10.607437
46	0x3fdb4907	1.7131661
47	0x3f6d7326	0.9275383
48	0x3ebd3a0a	0.36958343
49	0x3f39602a	0.7241236
50	0x3f2aacc0	0.66669846
51	0x3f945814	1.1589379
52	0x3f046a1d	0.51724416
53	0x405cdfd0	3.4511604
54	0x3ef4378c	0.4769863
55	0x3ed098b3	0.407415
56	0x40028284	2.039216
57	0x40416b5a	3.0221772
58	0x3f298aa6	0.66227186
59	0x3f6ee055	0.93311054
60	0x3ffad1b1	1.9595243
61	0x4026e318	2.6076107
62	0x3e35e7c9	0.177642
63	0x3e445799	0.19174041
64	0x3e60ea2a	0.21964327
65	0x3fb67eff	1.4257506
66	0x3fc32cef	1.5248088
67	0x406f479c	3.7387457
68	0x3f9a0eb0	1.2035732
69	0x40bb9b40	5.8627014
70	0x3f952119	1.1650726
71	0x3fd7de90	1.6864796
72	0x3e11a6a8	0.1422373
73	0x3eb7b583	0.3588067
74	0x3fca8d16	1.5824306
75	0x3ff5042c	1.9141898
76	0x3f694bf1	0.911315
77	0x3f100cdd	0.5626963
78	0x3ece3589	0.4027522
79	0x3fb38ac8	1.4026728
80	0x40014abb	2.0201862
81	0x40097102	2.1475224
82	0x3f4c2902	0.7975007
83	0x3f388973	0.7208473
84	0x3e987883	0.29779443
85	0x409e096e	4.938651
86	0x3f395b02	0.7240449
87	0x3f8f0250	1.1172581
88	0x4080ee2b	4.029073
89	0x3fb05e7b	1.3778833
90	0x3fa3a2e6	1.2784088
91	0x401f5f57	2.490194
92	0x40c0d469	6.025929
93	0x3e24edab	0.16106288
94	0x3faeccc6	1.3656242
95	0x3f564761	0.83702666
96	0x3ef3f684	0.47649014
97	0x3fb11842	1.3835528
98	0x3e491ede	0.19640681
99	0x3f9f6c18	1.2454863
100	0x3e995696	0.29948872
101	0x4027250f	2.6116369
102	0x4163ad9d	14.229886
103	0x3fef2dd0	1.8685856
104	0x3e80ca45	0.2515432
105	0x3faf0d13	1.3675865
106	0x3ece4797	0.40288994
107	0x4021d9cc	2.5289183
108	0x3fb1bccd	1.3885742
109	0x403d992a	2.9624734
110	0x3f56ece5	0.8395522
111	0x408824c7	4.2544894
112	0x3e91a509	0.28446224
113	0x401dbefa	2.4647813
114	0x3f4197ed	0.75622445
115	0x3f552c6f	0.83270925
116	0x40975871	4.729546
117	0x3fcf877c	1.6213222
118	0x4082641c	4.0747204
119	0x40953e56	4.6638594
120	0x40e7f690	7.248848
121	0x401bdfbe	2.4355311
122	0x3fc37a66	1.5271728
123	0x40304cb0	2.7546806
124	0x3f79ee47	0.9762921
125	0x3ede6119	0.43433455
126	0x3f951639	1.1647407
127	0x407e3e05	3.9725354

bn1.running_var f4 [128]
0	0x40b89b37	5.768947
1	0x419a1530	19.260345
2	0x40897e29	4.2966504
3	0x4091c53b	4.555326
4	0x418663e5	16.798777
5	0x4134a60f	11.290542
6	0x40ae4369	5.445729
7	0x40690529	3.64094
8	0x411a1af6	9.631582
9	0x415780f2	13.468981
10	0x3fec4515	1.8458582
11	0x414e539c	12.895412
12	0x401538e7	2.331598
13	0x41e16519	28.174364
14	0x40042795	2.064916
15	0x3fe83b96	1.8143184
16	0x413d4219	11.828637
17	0x40584b04	3.3795786
18	0x41218984	10.096073
19	0x40374155	2.8633626
20	0x408d4c35	4.4155526
21	0x401d76d0	2.4603767
22	0x4101dbfa	8.116205
23	0x3fcd32b4	1.6031098
24	0x4126596a	10.39683
25	0x4166fbe1	14.436494
26	0x4120da3e	10.053282
27	0x3f3d404f	0.7392625
28	0x3fb72578	1.430831
29	0x40df4bef	6.978019
30	0x420a4fe1	34.578007
31	0x409c425d	4.883101
32	0x40aa8f53	5.3299956
33	0x3fcdf11a	1.6089203
34	0x3f7f2151	0.9966021
35	0x3f55dd03	0.8354036
36	0x41307b2e	11.030073
37	0x3fa29843	1.2702717
38	0x3f0f2a49	0.559239
39	0x3f460aa5	0.7735999
40	0x3fad0a04	1.3518682
41	0x4146af16	12.417746
42	0x40b0a9f3	5.5207458
43	0x4154da7b	13.30334
44	0x412278ed	10.154523
45	0x4346e30b	198.88689
46	0x40d817bd	6.7528977
47	0x40e4fbe5	7.155749
48	0x3fef4487	1.8692788
49	0x403af2f4	2.9210787
50	0x406c175c	3.6889257
51	0x40cb058c	6.344427
52	0x40182d98	2.3777828
53	0x41a7e4fe	20.986813
54	0x400f6487	2.2405107
55	0x3fc61d95	1.5477778
56	0x410a4ce4	8.643772
57	0x4181b549	16.213518
58	0x3f7a6aab	0.9781901
59	0x40d2aa6a	6.5833025
60	0x416cd5a3	14.802157
61	0x413370e6	11.215063
62	0x3f3b88f6	0.7325586
63	0x3f23588b	0.6380698
64	0x3f2d22bd	0.6763113
65	0x40f41900	7.6280518
66	0x41258b31	10.346482
67	0x416616f8	14.380608
68	0x4069a5d7	3.650747
69	0x413d7a6c	11.842388
70	0x40b1e5a9	5.5592847
71	0x41045bf0	8.272446
72	0x3ee213a1	0.441556
73	0x3fe43c40	1.7830887
74	0x40f7fd7a	7.749692
75	0x4159f44a	13.622141
76	0x4080043f	4.0005183
77	0x401f54ae	2.4895434
78	0x3fc293d4	1.5201364
79	0x40ec7512	7.389291
80	0x4165dc60	14.3663025
81	0x41433f1f	12.20291
82	0x3fec83d1	1.8477727
83	0x402d4a63	2.7076652
84	0x3f614a47	0.88003963
85	0x4181bf02	16.218266
86	0x404d3f0f	3.2069738
87	0x41151659	9.317956
88	0x41b55d54	22.67057
89	0x40ba71c6	5.8263884
90	0x4097148a	4.721257
91	0x415935cd	13.575635
92	0x418cb589	17.58864
93	0x3f0313d7	0.5120215
94	0x40bfcb4c	5.9935665
95	0x402d5661	2.7083972
96	0x40100d0f	2.250797
97	0x4094d158	4.6505547
98	0x3ee8cbff	0.45468137
99	0x400ed495	2.231725
100	0x3fcb8663	1.5900387
101	0x4170a082	15.0391865
102	0x43b6321e	364.39154
103	0x40e11952	7.034341
104	0x3faaaab6	1.3333347
105	0x41078f1d	8.47244
106	0x4014b95a	2.323813
107	0x41543d13	13.264911
108	0x4109fc3a	8.624079
109	0x417ce639	15.806207
110	0x406328e3	3.5493705
111	0x40e0b2d1	7.021828
112	0x3f494fe7	0.78637546
113	0x4185d1e2	16.727482
114	0x40881794	4.252878
115	0x4084b9d0	4.147682
116	0x41ba1bb2	23.263523
117	0x40958053	4.6719146
118	0x419cf00e	19.617214
119	0x41c2c3e1	24.345644
120	0x41aff257	21.99333
121	0x412d19c3	10.8187895
122	0x41381edd	11.507535
123	0x418a80ca	17.312885
124	0x40b969c6	5.794162
125	0x3ffb6896	1.9641292
126	0x410a439d	8.641507
127	0x41a80043	21.000128

bn2.weight f4 [96]
0	0x3f4c848d	0.79889756
1	0x3e8d5584	0.27604306
2	0x3f2522a8	0.64506006
3	0x3f77fd28	0.9687066
4	0x3e770a98	0.24125135
5	0x3f07409f	0.5283298
6	0x3f1534c2	0.5828363
7	0x3f6fe958	0.9371543
8	0x3ebb84fe	0.36624902
9	0x3e90a8d2	0.282538
10	0x3f14b143	0.5808298
11	0x3c490340	0.012268841
12	0x3f6817d1	0.9066134
13	0x3f43e40c	0.76519847
14	0x3f592aab	0.8483073
15	0x3ea5b084	0.32361233
16	0x3f69597e	0.9115218
17	0x3e5b9830	0.21444774
18	0x3f4dca79	0.80387074
19	0x3d284410	0.041080534
20	0x3f005cf0	0.5014181
21	0x3e773d08	0.24144375
22	0x3f0d91d8	0.55300665
23	0x3f69e99c	0.91372085
24	0x3d8fbdd8	0.07018632
25	0x3f1c73b9	0.6111408
26	0x3f189415	0.59600955
27	0x3e24518c	0.16046733
28	0x3eff84de	0.49906057
29	0x3f41b0f9	0.75660664
30	0x3e370ed4	0.1787675
31	0x3f33bc8d	0.7020958
32	0x3e0cd46c	0.13752908
33	0x3f0ae816	0.54260385
34	0x3e5024dc	0.2032656
35	0x3d6fd950	0.058556855
36	0x3f4b3d11	0.79390055
37	0x3ecab532	0.39591366
38	0x3e6351ec	0.2219922
39	0x3d4548a0	0.048164964
40	0x3ea62ee6	0.32457656
41	0x3e3af870	0.18258834
42	0x3f3203d6	0.69537103
43	0x3e233d8c	0.15941447
44	0x3efeb414	0.49746764
45	0x3ee529dc	0.447585
46	0x3f31f254	0.6951039
47	0x3df6d338	0.120520055
48	0x3e601ecc	0.21886748
49	0x3f5d5a9d	0.8646639
50	0x3d044040	0.032287836
51	0x3e34a3a8	0.17640555
52	0x3dec5b28	0.11540824
53	0x3f2b5cde	0.6693858
54	0x3f6a2a48	0.91470766
55	0x3f70d8b1	0.94080645
56	0x3f2de003	0.6791994
57	0x3f76af95	0.96361667
58	0x3e4dcbdc	0.20097297
59	0x3f3830ef	0.71949667
60	0x3e7d2614	0.24721557
61	0x3e429504	0.19002157
62	0x3e2f7580	0.17134666
63	0x3f306216	0.6889967
64	0x3f6a1a99	0.91446835
65	0x3f5f89ca	0.87319624
66	0x3ec60468	0.38675237
67	0x3de09e08	0.10967642
68	0x3f605125	0.87623817
69	0x3e783ab0	0.24241138
70	0x3f6075f0	0.8767996
71	0x3e11c87c	0.14236635
72	0x3eeddcd2	0.46457535
73	0x3e8061da	0.25074655
74	0x3dfb2298	0.122624576
75	0x3f46f6ca	0.7772032
76	0x3c4eb080	0.012615323
77	0x3f41f22f	0.7576017
78	0x3f52f0de	0.82398784
79	0x3dc4e798	0.096144855
80	0x3dfc42d0	0.12317431
81	0x3ea5379c	0.3226899
82	0x3f08aa6f	0.5338506
83	0x3e6f0250	0.23340726
84	0x3e554688	0.20827687
85	0x3f6ed4fc	0.9329374
86	0x3eb4c3c8	0.3530562
87	0x3f1c6689	0.61093956
88	0x3f443e9b	0.7665803
89	0x3f203f56	0.6259664
90	0x3e701bd8	0.23448122
91	0x3bb53780	0.0055302978
92	0x3f2fba64	0.68643785
93	0x3d0233b0	0.031787574
94	0x3e75c4a4	0.24000794
95	0x3f554786	0.8331226

bn2.bias f4 [96]
0	0x00000000	0.0
1	0x00000000	0.0
2	0x00000000	0.0
3	0x00000000	0.0
4	0x00000000	0.0
5	0x00000000	0.0
6	0x00000000	0.0
7	0x00000000	0.0
8	0x00000000	0.0
9	0x00000000	0.0
10	0x00000000	0.0
11	0x00000000	0.0
12	0x00000000	0.0
13	0x00000000	0.0
14	0x00000000	0.0
15	0x00000000	0.0
16	0x00000000	0.0
17	0x00000000	0.0
18	0x00000000	0.0
19	0x00000000	0.0
20	0x00000000	0.0
21	0x00000000	0.0
22	0x00000000	0.0
23	0x00000000	0.0
24	0x00000000	0.0
25	0x00000000	0.0
26	0x00000000	0.0
27	0x00000000	0.0
28	0x00000000	0.0
29	0x00000000	0.0
30	0x00000000	0.0
31	0x00000000	0.0
32	0x00000000	0.0
33	0x00000000	0.0
34	0x00000000	0.0
35	0x00000000	0.0
36	0x00000000	0.0
37	0x00000000	0.0
38	0x00000000	0.0
39	0x00000000	0.0
40	0x00000000	0.0
41	0x00000000	0.0
42	0x00000000	0.0
43	0x00000000	0.0
44	0x00000000	0.0
45	0x00000000	0.0
46	0x00000000	0.0
47	0x00000000	0.0
48	0x00000000	0.0
49	0x00000000	0.0
50	0x00000000	0.0
51	0x00000000	0.0
52	0x00000000	0.0
53	0x00000000	0.0
54	0x00000000	0.0
55	0x00000000	0.0
56	0x00000000	0.0
57	0x00000000	0.0
58	0x00000000	0.0
59	0x00000000	0.0
60	0x00000000	0.0
61	0x00000000	0.0
62	0x00000000	0.0
63	0x00000000	0.0
64	0x00000000	0.0
65	0x00000000	0.0
66	0x00000000	0.0
67	0x00000000	0.0
68	0x00000000	0.0
69	0x00000000	0.0
70	0x00000000	0.0
71	0x00000000	0.0
72	0x00000000	0.0
73	0x00000000	0.0
74	0x00000000	0.0
75	0x00000000	0.0
76	0x00000000	0.0
77	0x00000000	0.0
78	0x00000000	0.0
79	0x00000000	0.0
80	0x00000000	0.0
81	0x00000000	0.0
82	0x00000000	0.0
83	0x00000000	0.0
84	0x00000000	0.0
85	0x00000000	0.0
86	0x00000000	0.0
87	0x00000000	0.0
88	0x00000000	0.0
89	0x00000000	0.0
90	0x00000000	0.0
91	0x00000000	0.0
92	0x00000000	0.0
93	0x00000000	0.0
94	0x00000000	0.0
95	0x00000000	0.0

bn2.running_mean f4 [96]
0	0x00000000	0.0
1	0x00000000	0.0
2	0x00000000	0.0
3	0x00000000	0.0
4	0x00000000	0.0
5	0x00000000	0.0
6	0x00000000	0.0
7	0x00000000	0.0
8	0x00000000	0.0
9	0x00000000	0.0
10	0x00000000	0.0
11	0x00000000	0.0
12	0x00000000	0.0
13	0x00000000	0.0
14	0x00000000	0.0
15	0x00000000	0.0
16	0x00000000	0.0
17	0x00000000	0.0
18	0x00000000	0.0
19	0x00000000	0.0
20	0x00000000	0.0
21	0x00000000	0.0
22	0x00000000	0.0
23	0x00000000	0.0
24	0x00000000	0.0
25	0x00000000	0.0
26	0x00000000	0.0
27	0x00000000	0.0
28	0x00000000	0.0
29	0x00000000	0.0
30	0x00000000	0.0
31	0x00000000	0.0
32	0x00000000	0.0
33	0x00000000	0.0
34	0x00000000	0.0
35	0x00000000	0.0
36	0x00000000	0.0
37	0x00000000	0.0
38	0x00000000	0.0
39	0x00000000	0.0
40	0x00000000	0.0
41	0x00000000	0.0
42	0x00000000	0.0
43	0x00000000	0.0
44	0x00000000	0.0
45	0x00000000	0.0
46	0x00000000	0.0
47	0x00000000	0.0
48	0x00000000	0.0
49	0x00000000	0.0
50	0x00000000	0.0
51	0x00000000	0.0
52	0x00000000	0.0
53	0x00000000	0.0
54	0x00000000	0.0
55	0x00000000	0.0
56	0x00000000	0.0
57	0x00000000	0.0
58	0x00000000	0.0
59	0x00000000	0.0
60	0x00000000	0.0
61	0x00000000	0.0
62	0x00000000	0.0
63	0x00000000	0.0
64	0x00000000	0.0
65	0x00000000	0.0
66	0x00000000	0.0
67	0x00000000	0.0
68	0x00000000	0.0
69	0x00000000	0.0
70	0x00000000	0.0
71	0x00000000	0.0
72	0x00000000	0.0
73	0x00000000	0.0
74	0x00000000	0.0
75	0x00000000	0.0
76	0x00000000	0.0
77	0x00000000	0.0
78	0x00000000	0.0
79	0x00000000	0.0
80	0x00000000	0.0
81	0x00000000	0.0
82	0x00000000	0.0
83	0x00000000	0.0
84	0x00000000	0.0
85	0x00000000	0.0
86	0x00000000	0.0
87	0x00000000	0.0
88	0x00000000	0.0
89	0x00000000	0.0
90	0x00000000	0.0
91	0x00000000	0.0
92	0x00000000	0.0
93	0x00000000	0.0
94	0x00000000	0.0
95	0x00000000	0.0

bn2.running_var f4 [96]
0	0x3f800000	1.0
1	0x3f800000	1.0
2	0x3f800000	1.0
3	0x3f800000	1.0
4	0x3f800000	1.0
5	0x3f800000	1.0
6	0x3f800000	1.0
7	0x3f800000	1.0
8	0x3f800000	1.0
9	0x3f800000	1.0
10	0x3f800000	1.0
11	0x3f800000	1.0
12	0x3f800000	1.0
13	0x3f800000	1.0
14	0x3f800000	1.0
15	0x3f800000	1.0
16	0x3f800000	1.0
17	0x3f800000	1.0
18	0x3f800000	1.0
19	0x3f800000	1.0
20	0x3f800000	1.0
21	0x3f800000	1.0
22	0x3f800000	1.0
23	0x3f800000	1.0
24	0x3f800000	1.0
25	0x3f800000	1.0
26	0x3f800000	1.0
27	0x3f800000	1.0
28	0x3f800000	1.0
29	0x3f800000	1.0
30	0x3f800000	1.0
31	0x3f800000	1.0
32	0x3f800000	1.0
33	0x3f800000	1.0
34	0x3f800000	1.0
35	0x3f800000	1.0
36	0x3f800000	1.0
37	0x3f800000	1.0
38	0x3f800000	1.0
39	0x3f800000	1.0
40	0x3f800000	1.0
41	0x3f800000	1.0
42	0x3f800000	1.0
43	0x3f800000	1.0
44	0x3f800000	1.0
45	0x3f800000	1.0
46	0x3f800000	1.0
47	0x3f800000	1.0
48	0x3f800000	1.0
49	0x3f800000	1.0
50	0x3f800000	1.0
51	0x3f800000	1.0
52	0x3f800000	1.0
53	0x3f800000	1.0
54	0x3f800000	1.0
55	0x3f800000	1.0
56	0x3f800000	1.0
57	0x3f800000	1.0
58	0x3f800000	1.0
59	0x3f800000	1.0
60	0x3f800000	1.0
61	0x3f800000	1.0
62	0x3f800000	1.0
63	0x3f800000	1.0
64	0x3f800000	1.0
65	0x3f800000	1.0
66	0x3f800000	1.0
67	0x3f800000	1.0
68	0x3f800000	1.0
69	0x3f800000	1.0
70	0x3f800000	1.0
71	0x3f800000	1.0
72	0x3f800000	1.0
73	0x3f800000	1.0
74	0x3f800000	1.0
75	0x3f800000	1.0
76	0x3f800000	1.0
77	0x3f800000	1.0
78	0x3f800000	1.0
79	0x3f800000	1.0
80	0x3f800000	1.0
81	0x3f800000	1.0
82	0x3f800000	1.0
83	0x3f800000	1.0
84	0x3f800000	1.0
85	0x3f800000	1.0
86	0x3f800000	1.0
87	0x3f800000	1.0
88	0x3f800000	1.0
89	0x3f800000	1.0
90	0x3f800000	1.0
91	0x3f800000	1.0
92	0x3f800000	1.0
93	0x3f800000	1.0
94	0x3f800000	1.0
95	0x3f800000	1.0
