checkpoint_agent1_actor.pth (torch_old, 70766 bytes, 14 tensors)

fc1.weight f4 [128, 24]
0	0x3c9f197d	0.019421333
1	0x3cf6a749	0.030109065
2	0xbd4359b3	-0.047692966
3	0x3cb38ae1	0.021916809
4	0xbcaeef81	-0.021354439
5	0xbeabc5c1	-0.33549312
6	0x3d54c2ff	0.051943775
7	0xbcb9a40d	-0.022661233
8	0xbd86ef60	-0.06588626
9	0xbcc2445d	-0.023714239
10	0xbd383e2d	-0.04498117
11	0xbd4f63c3	-0.05063225
12	0xbd02ba97	-0.031916227
13	0xbdd42cb4	-0.10360089
14	0x3cd3c887	0.025852455
15	0xbd1785d7	-0.036992874
16	0x3ce1b254	0.027550854
17	0x3d9904f2	0.07471646
18	0xbd0aa348	-0.033847123
19	0x3befecd2	0.0073219324
20	0x3d2ef43e	0.042713396
21	0x3cb9aaa7	0.022664381
22	0x3cbc8946	0.023014676
23	0xbc1e01ce	-0.009643985
24	0xbd9216da	-0.07133265
25	0x3dbf6a09	0.093463965
26	0xbc405000	-0.0117378235
27	0x3d3efba6	0.04662671
28	0xbd18f9ce	-0.037347607
29	0xbe700284	-0.2343846
30	0xba7ef047	-0.0009725135
31	0x3d7bd64d	0.06148367
32	0x3d0f6c4b	0.035015386
33	0xbd4b9240	-0.04970002
34	0x3cb7143f	0.022348521
35	0xbd68b6b8	-0.05681488
36	0x3cf8ee55	0.030387083
37	0xbd516219	-0.051118944
38	0xbd271a8c	-0.0407968
39	0x3b5b4746	0.003345923
40	0x3c24dd26	0.0100624915
41	0x3c43c37c	0.011948463
42	0xbb30382a	-0.0026888945
43	0xbcd838fe	-0.026394363
44	0xbd653498	-0.05595836
45	0x3dd38db6	0.103297636
46	0xbb076222	-0.0020657857
47	0xbd6daf52	-0.058028527
48	0xbd84ad23	-0.06478336
49	0x3ddfebc9	0.10933644
50	0x3ce20fa2	0.027595345
51	0x3c6eeab9	0.014582329
52	0x3d1563dd	0.03647219
53	0xbd03a1cd	-0.032136727
54	0x3b8154ee	0.003946892
55	0xbd78d9da	-0.060754634
56	0x3ca0ac31	0.019613357
57	0x3d8e6e1c	0.069545954
58	0x3d388c51	0.04505569
59	0xbe0657ee	-0.1311948
60	0xbd4f7837	-0.050651755
61	0xbd6e009b	-0.058106046
62	0x3cd47fec	0.025939904
63	0xbbcaedd8	-0.006192904
64	0x3cb13338	0.021630868
65	0x3e4e74ce	0.20161745
66	0xbd4fa04e	-0.050689988
67	0x3d0273f6	0.03184887
68	0xbd330875	-0.043709237
69	0x3de8f26d	0.11374364
70	0x3bb2eded	0.005460492
71	0x3c03c5a0	0.008042723
72	0xbc92fe5d	-0.017943555
73	0x3d22e981	0.039773468
74	0x3d7d492f	0.06183737
75	0x3d8f5c56	0.070000336
76	0xbc84fd48	-0.016234055
77	0x3db21d35	0.08696977
78	0xbdb3a647	-0.08771949
79	0xbc53c1a9	-0.01292459
80	0x3d5166ae	0.051123314
81	0x3cd2c787	0.025729908
82	0x39eee795	0.0004556744
83	0xbdf4a54e	-0.11945592
84	0xbcc4c45a	-0.024019409
85	0x3d68385f	0.056694385
86	0xbce06f19	-0.027396725
87	0xbdee5b59	-0.11638517
88	0x3e0a8e78	0.1353091
89	0x3e173a27	0.14768277
90	0x3d5ded4a	0.054181375
91	0xbd301789	-0.042991195
92	0x3d1a352f	0.037648376
93	0x3dc9b603	0.09849169
94	0xbd934be4	-0.07192209
95	0xbd4df3af	-0.050281223
96	0x3d5de357	0.054171886
97	0x3dda0e7b	0.10647293
98	0xb9f9a048	-0.000476124
99	0xbd05dd1f	-0.03268158
100	0x3c8183f2	0.015809987
101	0xbcb8b98e	-0.022549417
102	0xbc1217d9	-0.008916819
103	0xbc0f28e4	-0.008737776
104	0x3e018af9	0.1265067
105	0x3d1b4a64	0.03791274
106	0xbdb8f972	-0.09031953
107	0x3cced9ac	0.025250278
108	0x3d7bb92d	0.061455894
109	0xbe0a7b37	-0.13523565
110	0x3c8ad9ba	0.016949523
111	0x3a01069b	0.0004921944
112	0x3de1b6d3	0.11021199
113	0x3e431e65	0.19054563
114	0xb94dc842	-0.00019624925
115	0xbc3f6a47	-0.011683053
116	0xbd832f35	-0.064054884
117	0xbdce5bb2	-0.10076083
118	0xbc86a02a	-0.016433794
119	0xbca2e25f	-0.019883333
120	0x3c5d14f6	0.013493767
121	0x3e3e0f81	0.18560602
122	0xbca37a52	-0.019955788
123	0xbd7c65c6	-0.061620496
124	0x3c4f4726	0.01265124
125	0xbdc45534	-0.09586564
126	0x3c5faecc	0.013652515
127	0xbc1c11ad	-0.009525699
128	0xbda22d9e	-0.07918857
129	0x3dfb1dc9	0.122615404
130	0x3d6ee591	0.0583244
131	0xbe180507	-0.14845668
132	0xbc0e5756	-0.008687815
133	0xbc9d88f4	-0.019230343
134	0xbc25e3bc	-0.010125097
135	0xbd23f728	-0.04003063
136	0xbdd1142d	-0.10208926
137	0xbd02ab19	-0.031901453
138	0x3d0e7379	0.034778092
139	0xbdb58406	-0.08863072
140	0xbce44514	-0.02786497
141	0xbe2fdbc0	-0.17173672
142	0xbd281a0e	-0.041040473
143	0xbdd40416	-0.10352342
144	0x3d86ab96	0.06575696
145	0x3e06c30a	0.13160339
146	0xbd100f1e	-0.035170667
147	0x3d9a9d2c	0.075495094
148	0xbcf398da	-0.029735971
149	0x3da25c4f	0.07927763
150	0xbc408dd5	-0.011752565
151	0x3e11bf02	0.1423302
152	0xbd203f1d	-0.03912269
153	0xbd3c6d23	-0.04600252
154	0xbb942e8e	-0.0045221513
155	0xbc59cde5	-0.013293718
156	0x3c87070f	0.016482858
157	0x3e41cb06	0.18925104
158	0xbc027ce8	-0.00796435
159	0xbdbac873	-0.09120264
160	0xba743e45	-0.000931714
161	0xbc173e0e	-0.009231104
162	0x3d734ded	0.059400488
163	0x3d6d9903	0.05800725
164	0x3d410a3c	0.0471289
165	0x3e6eb6b0	0.23311877
166	0xbdc6e86b	-0.09712299
167	0x3c52406a	0.01283274
168	0x3d60b581	0.054860596
169	0xbd1a35b2	-0.037648864
170	0xbd92d8f5	-0.071702875
171	0xbb664afe	-0.0035139914
172	0xbcde6090	-0.027145654
173	0x3d053e57	0.032530155
174	0x3d5ccfbb	0.053909045
175	0x3dd33317	0.10312479
176	0x3bb7f1d8	0.005613547
177	0x3cc7f7fe	0.024410244
178	0xbd8839ab	-0.06651624
179	0x3d83d677	0.0643739
180	0xbc34c9c1	-0.01103443
181	0xbcc6baff	-0.024259089
182	0x3d8d705e	0.06906198
183	0xbd1ed91d	-0.038781274
184	0xbd4d8dd7	-0.050184097
185	0xbdc9aa27	-0.09846907
186	0xbcf45f81	-0.029830696
187	0x3d54601d	0.051849473
188	0x3ebd2418	0.369416
189	0xbc17ce3c	-0.009265479
190	0x3c9494c5	0.018137345
191	0x3cbfd8d8	0.023418829
192	0x3d985f61	0.07440067
193	0x3dd03e57	0.101681404
194	0xbc1e2a34	-0.009653617
195	0xbd2d61f1	-0.042329732
196	0xbd9ea872	-0.07746972
197	0x3dafb69a	0.0857975
198	0x38861373	6.3932406e-05
199	0x3d753179	0.059861634
200	0x3deec9fc	0.11659619
201	0x3d3f505a	0.04670749
202	0x3cf841cd	0.030304814
203	0x3d7d7721	0.06188119
204	0xbdc18e44	-0.09450963
205	0x3e2ac564	0.16676861
206	0xbc9dd067	-0.019264413
207	0xbda7bf7a	-0.08190818
208	0xbd2c8ffd	-0.042129505
209	0x3d8ba28d	0.068181135
210	0x3bcb9c22	0.006213681
211	0xbbf2533a	-0.0073951753
212	0x3d6436e7	0.05571642
213	0x3e28267c	0.1642093
214	0x3b8cdf13	0.0042990535
215	0xbd451452	-0.048115082
216	0xbe2650c8	-0.16241753
217	0x3da84264	0.08215788
218	0x3d0ed5f6	0.034872018
219	0xbc0c9025	-0.008579289
220	0xbbc8b71a	-0.006125343
221	0xbd024622	-0.031805165
222	0xbd1e6240	-0.038667917
223	0xbba818af	-0.0051298956
224	0x3c957381	0.018243553
225	0x3dfb74ba	0.12278123
226	0x3cde10ce	0.027107622
227	0x3d284ecd	0.041090775
228	0x3d4d3398	0.05009803
229	0xbe16d43c	-0.14729398
230	0xbcf39c90	-0.02973774
231	0x3d2ce53f	0.042210814
232	0x3ccd7a4a	0.025082726
233	0x3de003c9	0.10938222
234	0x3d65909d	0.056046117
235	0xbd44a132	-0.04800529
236	0x3dc5b417	0.0965349
237	0xbe1425f6	-0.14467606
238	0xbd8711e1	-0.06595207
239	0xbd0e80fa	-0.03479097
240	0x3c57a75e	0.013162462
241	0x3ba91b75	0.005160744
242	0xbb41d427	-0.0029575916
243	0x3cd34446	0.025789391
244	0x3e40e3d2	0.18836907
245	0x3e03f710	0.12887216
246	0xbc84f3b8	-0.016229495
247	0x3d4b64d2	0.049656697
248	0x3a23d7cc	0.0006250113
249	0x3e1ccfca	0.1531364
250	0xbbc7ed45	-0.006101283
251	0xbd408679	-0.047003243
252	0x3d01e5ee	0.03171342
253	0x3d04e581	0.032445434
254	0x3ad10280	0.001594618
255	0xbbbb7474	-0.0057206694

fc1.bias f4 [128]
0	0x3df3bf56	0.11901729
1	0xbea0b98e	-0.31391567
2	0xbe6608cd	-0.22464295
3	0xbb7c8699	-0.0038532375
4	0xbdeca940	-0.115557194
5	0x3dd308e6	0.103044316
6	0xbd5b9dc6	-0.05361726
7	0x3dae5d3d	0.085138775
8	0xbd8a153a	-0.0674233
9	0x3e3537a9	0.17697014
10	0xbe57c931	-0.21072842
11	0xbe5c4ed6	-0.21514449
12	0xbc962481	-0.018327953
13	0xbdc2e2dd	-0.09515927
14	0xbbcfe62e	-0.006344578
15	0x3d57fc14	0.052730635
16	0xbaab1dc0	-0.0013055131
17	0xbe277c7e	-0.16356084
18	0xbe2ba9f8	-0.16764057
19	0x3d0eaf6b	0.03483526
20	0xbe1dd373	-0.15412693
21	0xbd107aa0	-0.035273194
22	0xbd4144d6	-0.047184788
23	0xbdc8873a	-0.097914174
24	0x3e27fa48	0.16404068
25	0xbe914081	-0.28369525
26	0xbe4deaac	-0.20109051
27	0x3e4765d0	0.19472432
28	0xbd86080d	-0.06544504
29	0xbea4bd3b	-0.3217562
30	0xbe322c7f	-0.17399786
31	0x3e3b91d7	0.18317352
32	0xbd95a4ac	-0.07306799
33	0x3dcb23ec	0.09918961
34	0x3e25cf68	0.161924
35	0xbe047296	-0.12934336
36	0x3cfbf0a3	0.030754393
37	0x3d4416e5	0.047873396
38	0xbe4dd50d	-0.20100804
39	0xbe3e1b09	-0.18565
40	0x3de5f467	0.11228257
41	0xbd9438e6	-0.07237415
42	0xbe21fd04	-0.15819174
43	0xbddb15f5	-0.10697547
44	0xbde9b00a	-0.1141053
45	0xbe5e00bb	-0.21679966
46	0x3e4edf16	0.20202288
47	0xbdecec67	-0.11568528
48	0xbdf241d6	-0.118289635
49	0xbdce2a70	-0.10066688
50	0xbe5c5ef0	-0.21520591
51	0xbe16c396	-0.14723048
52	0xbd943905	-0.07237438
53	0xbe4db12f	-0.20087121
54	0xbe422cab	-0.18962352
55	0xbe64ebc1	-0.22355558
56	0xbe3f3e72	-0.18676165
57	0x3d0db58e	0.034596972
58	0x3da39a77	0.07988446
59	0xbe0292bc	-0.12751287
60	0xbe92c3a5	-0.2866489
61	0x3d94e4af	0.072701804
62	0x3d695eed	0.056975294
63	0xbc01a581	-0.007912994
64	0x3dcc01d7	0.099612884
65	0xbe46b12f	-0.19403528
66	0x3bafa469	0.0053601754
67	0xbd40465f	-0.04694211
68	0xbcdc3e6b	-0.026885232
69	0xbd62dc33	-0.05538578
70	0x3ceccc2a	0.028905947
71	0xbdcf93fd	-0.101356484
72	0x3a705bfe	0.00091689813
73	0xbd7fb930	-0.062432468
74	0xbe1047b6	-0.14089856
75	0xbdffad45	-0.124842204
76	0xbe1926de	-0.14956233
77	0xbd0575a0	-0.03258288
78	0x3e036b9f	0.12834023
79	0xbdb0fe46	-0.08642249
80	0x3d9a68de	0.07539533
81	0x3d4e226c	0.050325796
82	0xbcf5d4cc	-0.030008696
83	0x3db78714	0.08961311
84	0xbd446473	-0.04794736
85	0x3e069287	0.13141833
86	0xbdc07383	-0.09397032
87	0xbe331633	-0.17488937
88	0xbe53d64a	-0.20687214
89	0xbe1d738f	-0.15376113
90	0x3d61b8a4	0.055107728
91	0x3d338cff	0.043835636
92	0xbc54367b	-0.012952442
93	0xbe6533ce	-0.22383043
94	0x3ea08d4f	0.3135781
95	0x3daf610a	0.085634306
96	0xbe62c163	-0.22144084
97	0xbe590f01	-0.2119713
98	0xbd7378ce	-0.05944138
99	0xbd1656e8	-0.036703974
100	0xbd872f60	-0.06600833
101	0x3e19fece	0.15038607
102	0xbe0998fa	-0.13437262
103	0x3e2ad66e	0.16683361
104	0xbdf5db61	-0.12004734
105	0x3e5e75f4	0.21724683
106	0xbc58c0a9	-0.0132295275
107	0x3e0f65cc	0.14003676
108	0xbe52a490	-0.20570588
109	0xbdd61452	-0.104530945
110	0xbd4216c9	-0.04738501
111	0xbe617eae	-0.2202098
112	0x3d33704c	0.043808267
113	0xbe929546	-0.28629512
114	0xbd827d7d	-0.06371591
115	0x3d851d18	0.0649969
116	0xbdc7016c	-0.09717068
117	0xbbaad56c	-0.00521343
118	0xbe6f013b	-0.23340313
119	0x3d97fea9	0.074216194
120	0x3d778da1	0.060437802
121	0xbde70e1e	-0.112819895
122	0xbdc97a66	-0.09837799
123	0x3dddbea7	0.1082738
124	0xbe896721	-0.26836494
125	0x3d7176d0	0.0589512
126	0x3e081e38	0.13292778
127	0xbdebc061	-0.11511303

fc2.weight f4 [100, 128]
0	0x3dbf0e0c	0.09328851
1	0x3d99031e	0.07471298
2	0xbd24c6c9	-0.04022864
3	0x3c7dcfa5	0.015491401
4	0xbc53d65f	-0.012929528
5	0x3ddf5529	0.10904915
6	0xbdffdb8a	-0.12493046
7	0x3c25bb20	0.010115415
8	0xbe501f4a	-0.20324436
9	0x3c85d6a1	0.016337695
10	0xbd3cbca3	-0.046078335
11	0x3e24e1b0	0.16101718
12	0x3dd77d95	0.10522
13	0xbd518076	-0.0511479
14	0xbd6019da	-0.054712154
15	0xbd8ab7be	-0.06773327
16	0x3c317c25	0.010832821
17	0xbba1a673	-0.0049331724
18	0x3da6088f	0.08107101
19	0x3d069a2e	0.03286188
20	0xbe071dea	-0.13195005
21	0x3e2d625d	0.16932054
22	0xbea2249c	-0.31668556
23	0xbcc7aeab	-0.02437528
24	0x3bb3ae67	0.005483437
25	0xbe326189	-0.17420019
26	0x3d47d673	0.0487885
27	0x3db838ab	0.089951836
28	0x3dcad8eb	0.09904655
29	0x3ea99033	0.33117828
30	0xbe58d35b	-0.21174376
31	0x3e2872e0	0.16450071
32	0x3d695e5c	0.056974754
33	0x3d443452	0.04790146
34	0xbdd3c1d9	-0.10339708
35	0x3d148f60	0.036269546
36	0x3db5d61f	0.08878731
37	0xbeab606d	-0.33472005
38	0x3da7ede5	0.08199672
39	0xbe8436cd	-0.2582306
40	0x3e605f0c	0.21911258
41	0x3de1e446	0.11029868
42	0xbc91fff2	-0.01782224
43	0xbd7f54f2	-0.06233687
44	0xbe8da83e	-0.2766742
45	0xbe5eed44	-0.21770197
46	0x3cf49f7a	0.0298612
47	0xbe5ce670	-0.2157228
48	0x3e3cbf3e	0.18432328
49	0xbdee2398	-0.11627883
50	0x3d332ec2	0.043745764
51	0xbe3415fa	-0.17586508
52	0xbdb7f077	-0.08981412
53	0x3d45b95b	0.048272472
54	0x3ce71f8e	0.028213289
55	0xbe422a2f	-0.18961404
56	0x3e0c8ac6	0.13724813
57	0xbdc8e1da	-0.09808703
58	0x3cbf7c56	0.023374718
59	0xbd550819	-0.052009676
60	0xbce2b9e8	-0.027676538
61	0xbe0b2895	-0.135897
62	0xbd29fa74	-0.041498616
63	0xbc36e99e	-0.011164097
64	0x3e180ed6	0.1484941
65	0x3d205095	0.03913935
66	0x3e5037e0	0.20333815
67	0xbdf9a381	-0.12189389
68	0xbcd99d9b	-0.02656441
69	0x3de5b2e7	0.112157635
70	0x3d685d00	0.056729317
71	0xbe8a35d8	-0.26994205
72	0x3e094cd7	0.13408218
73	0x3d411165	0.04713573
74	0x3ddd0a4b	0.10792979
75	0x3db29aff	0.087209694
76	0x3db2ac15	0.08724228
77	0x3ddd3d04	0.108026534
78	0x3e15155f	0.14558934
79	0x3ec1d59e	0.3785829
80	0x3d563996	0.052301012
81	0x3e1c3cda	0.15257588
82	0x3d23e47c	0.04001282
83	0x3e11d1f2	0.14240244
84	0xbc412db0	-0.011790678
85	0x3d8a76a9	0.06760914
86	0x3dd39286	0.103306815
87	0xbe877ea6	-0.26463813
88	0x3d17b932	0.03704185
89	0x3cfc694a	0.030811924
90	0xbc81527c	-0.015786402
91	0x3e90bd23	0.282693
92	0xbe4255a9	-0.1897799
93	0xbc8adfab	-0.016952356
94	0x3d9f19d3	0.077685975
95	0x3a9a15f8	0.0011755815
96	0xbd8003b7	-0.062507086
97	0x3be44176	0.0069658114
98	0x3cb80548	0.022463456
99	0x3e0192a9	0.12653603
100	0xbe419ef3	-0.1890829
101	0x3dfb2063	0.12262037
102	0xbda60c0e	-0.08107768
103	0x3db45644	0.08805516
104	0xbe03db24	-0.12876564
105	0xbe1f6667	-0.15566407
106	0x3e43c5cc	0.19118422
107	0xbd66d767	-0.056357767
108	0x3c785ad6	0.015158376
109	0x3d86cccb	0.0658203
110	0xbd994938	-0.074846685
111	0x3cf1ad07	0.029501451
112	0x3d21f17c	0.039536938
113	0xbe00ca23	-0.12577109
114	0xbe51142e	-0.20417854
115	0x3d1e56ae	0.038656883
116	0xbdc47744	-0.095930606
117	0x3c50b76b	0.012739043
118	0x3cf04bea	0.029333074
119	0x3d255444	0.040363565
120	0xbe1a67e7	-0.15078698
121	0xbd3e734d	-0.04649668
122	0xbdcc0b52	-0.09963097
123	0xbe387821	-0.18014576
124	0xbdc6643b	-0.09687086
125	0xbc88ce7d	-0.016700024
126	0x3dd1a647	0.10236793
127	0xbc021ac7	-0.0079409545
128	0xbe5ad49a	-0.21370164
129	0xbebb4fe9	-0.36584404
130	0xbdda48ba	-0.10658403
131	0xbda520f2	-0.080629244
132	0x3d4c9487	0.049946334
133	0x3c530616	0.012879869
134	0xbdd7bf43	-0.10534527
135	0xbe61ffa2	-0.22070172
136	0x3db98ef0	0.09060466
137	0xbe895857	-0.2682521
138	0xbead1005	-0.33801284
139	0x3d8c7e54	0.06860033
140	0xbcc58071	-0.024109097
141	0xbe19b94c	-0.15012091
142	0x3e393dcc	0.1808998
143	0xbd2fed75	-0.042951066
144	0xbd918e0a	-0.0710717
145	0x3d80bcd2	0.062860146
146	0xbca1b270	-0.019738406
147	0x3cc33649	0.023829596
148	0xbd839799	-0.06425399
149	0x3d35b10f	0.04435831
150	0xbe982928	-0.297189
151	0xbe018cc4	-0.12651354
152	0xbdccc3e7	-0.09998303
153	0xbdabedf8	-0.08394998
154	0x3e3228c2	0.1739836
155	0x3d5debe5	0.054180045
156	0xbe7499ff	-0.2388687
157	0xbdfd60c5	-0.12371973
158	0x3d1b5171	0.037919465
159	0xbd992fed	-0.07479844
160	0x3d2f1a5f	0.04274976
161	0x3ceb3f98	0.028716847
162	0x3d818e66	0.063259885
163	0x3cc5f4a7	0.02416451
164	0x3d8f6ef3	0.07003584
165	0x3e78d25b	0.24298994
166	0x3d3f7134	0.04673882
167	0xbe298693	-0.16555242
168	0xbda55bbe	-0.08074139
169	0x3d422e67	0.047407534
170	0xbc2b8533	-0.010468769
171	0x3d98961d	0.07450507
172	0x3cb87f0e	0.022521522
173	0x3c9d657c	0.01921343
174	0x3d8fbdf3	0.07018652
175	0x3c7a48fb	0.015276189
176	0xbcb825d3	-0.022478973
177	0x3e066feb	0.13128631
178	0x3e360006	0.17773446
179	0x3d87471c	0.0660536
180	0xbdce06ef	-0.10059916
181	0xbe0649c0	-0.13114071
182	0xbd45db1a	-0.048304655
183	0x3e07a2cc	0.13245696
184	0xbd60989c	-0.05483304
185	0xbdadbc92	-0.084832326
186	0xbe49fdc8	-0.19725716
187	0xbd53b82b	-0.051689308
188	0x3db5a943	0.08870175
189	0xbda6e86b	-0.08149799
190	0xbe906fc7	-0.2821028
191	0x3de8ccd2	0.113671914
192	0x3dd65139	0.10464711
193	0xbd2dd650	-0.042440712
194	0xbe96b0c7	-0.29431745
195	0x3e1482d4	0.14503032
196	0x3d78b9e4	0.060724154
197	0x3dd67d09	0.10473067
198	0x3e0d6551	0.1380818
199	0xbde0eb4f	-0.109823816
200	0x3c6b793b	0.014372165
201	0xbdd5904c	-0.10427913
202	0xbda7565d	-0.08170769
203	0x3c811836	0.015758615
204	0x3d2069c1	0.039163355
205	0xbda17555	-0.078837074
206	0xbd0956e1	-0.03353012
207	0x3d8ffe45	0.0703092
208	0xbd5cd501	-0.053914074
209	0x3e33c981	0.17557336
210	0x3b63f1a0	0.003478147
211	0xbd9f0d6d	-0.07766233
212	0x3c933aac	0.017972313
213	0xbca35191	-0.019936355
214	0x3c84c915	0.016209165
215	0xbe5971e7	-0.21234857
216	0xbc29bb3e	-0.010359583
217	0x3deaeb90	0.11470711
218	0xbd7ce6bf	-0.061743494
219	0x3d29511e	0.041337125
220	0x3d071d33	0.03298683
221	0xbde56540	-0.112009525
222	0xbde43344	-0.11142591
223	0xbd2eb52d	-0.04265325
224	0xbc229e73	-0.009925473
225	0x3dabd1cd	0.08389626
226	0x3d476847	0.04868343
227	0xbd97655f	-0.07392382
228	0x3e0c6019	0.13708533
229	0xbd869551	-0.065714486
230	0xbd6e07d9	-0.058112953
231	0xbe5553ae	-0.20832703
232	0xbd29d1d1	-0.041459862
233	0xbda5c158	-0.08093518
234	0x3dfd5c63	0.12371137
235	0x3e1ce297	0.15320812
236	0x3be2af68	0.0069178827
237	0xbe061879	-0.13095273
238	0xbbb5f2e4	-0.0055526365
239	0xbb9e8042	-0.004837067
240	0xbe398170	-0.18115783
241	0xbe2f47a8	-0.17117178
242	0x3dd475ec	0.10374054
243	0x3d5977b5	0.053092677
244	0x3d3a06a4	0.04541649
245	0xbd8c964f	-0.068646066
246	0xbd9cb385	-0.07651428
247	0xbde7e03b	-0.113220654
248	0xbde6b714	-0.11265388
249	0x3e84073e	0.25786775
250	0xbe98bb3a	-0.29830343
251	0x3d867de6	0.06566982
252	0x3ccf43e5	0.02530093
253	0xbe576317	-0.21033894
254	0xbd526ac2	-0.051371343
255	0x3d7f5aae	0.06234234

fc2.bias f4 [100]
0	0xbbe9cafc	-0.0071347933
1	0xbe0de89e	-0.13858268
2	0x3b9777ad	0.0046224208
3	0xbd4f3aaf	-0.050593074
4	0x3c8926f6	0.01674221
5	0x3cc0846c	0.023500644
6	0xbd94571d	-0.07243178
7	0xbd97781b	-0.07395955
8	0x3e113e5a	0.14183941
9	0xbbd6bade	-0.006553038
10	0x3d0eb033	0.034836005
11	0xbcdf159a	-0.02723198
12	0x3d940715	0.07227913
13	0xba95f311	-0.0011440237
14	0x3d987b71	0.074454196
15	0x3d035cd5	0.032070953
16	0x3b0a88ad	0.0021138594
17	0x3dd074ba	0.10178514
18	0x3b6ffa11	0.0036617557
19	0xbbe355cf	-0.0069377194
20	0xbdb89f35	-0.09014741
21	0x3d28dc9f	0.041226026
22	0x3dbd1225	0.092319764
23	0x3e124dbc	0.14287466
24	0xbda8f926	-0.08250646
25	0x3d954ca8	0.07290012
26	0x3db39418	0.08768481
27	0x3cf610ee	0.03003737
28	0x3c391b15	0.011297961
29	0x3e26a02d	0.1627204
30	0x3e05478e	0.13015577
31	0x3db7497e	0.089495644
32	0xbc7dae30	-0.015483424
33	0x3d50f3c1	0.05101371
34	0x3c5cbebf	0.013473212
35	0xbd280092	-0.04101617
36	0x3d977e95	0.073971905
37	0x3de58da2	0.11208655
38	0x3ce9f304	0.028558262
39	0x3d6e7542	0.058217295
40	0xbd18cee0	-0.037306666
41	0x3dae0ec7	0.08498912
42	0x3d089cd2	0.03335268
43	0x3d774fd1	0.060378853
44	0x3d3fc306	0.04681685
45	0x3d90a87e	0.07063387
46	0xbdec3d6b	-0.11535152
47	0x3bb5d622	0.0055492083
48	0x3db79638	0.08964199
49	0x3c22c73b	0.009935196
50	0xbcd073a5	-0.025445769
51	0xbd0acbcb	-0.03388576
52	0xbc891a54	-0.016736187
53	0x3d19a520	0.03751099
54	0xbd697693	-0.056997847
55	0xbd2037c6	-0.03911569
56	0xbd6b6646	-0.057470582
57	0x3d48f262	0.04905928
58	0x3d8b293b	0.067949735
59	0x3e361f82	0.17785457
60	0x3bb69e58	0.0055730753
61	0x3e1f5fff	0.15563963
62	0xbced0adc	-0.028935842
63	0x3d540de0	0.051771045
64	0x3dba2d97	0.09090727
65	0xbd061238	-0.03273222
66	0x3c7d58e0	0.015463084
67	0xbd843103	-0.06454661
68	0x3dbd2300	0.09235191
69	0x3d555dd5	0.05209144
70	0xbd7a2e03	-0.061079036
71	0xba3a0687	-0.00070963096
72	0x3bde6650	0.006787099
73	0x3d7cde54	0.061735466
74	0x3c6a5246	0.014301842
75	0x3d6849cb	0.056711
76	0x3e5f5747	0.21810637
77	0x3d861bb2	0.06548251
78	0xbcfff6fe	-0.031245705
79	0xbd99638d	-0.07489691
80	0xbce43e70	-0.027861804
81	0x3d8443d6	0.06458251
82	0x3dcb5c2f	0.09929692
83	0x3d7a0142	0.061036356
84	0xbe21c434	-0.15797502
85	0x3d798f7d	0.060927857
86	0xbc9e4e36	-0.019324403
87	0x3d227570	0.03966278
88	0x3de839fa	0.11339183
89	0x3d2de93b	0.042458754
90	0xbc61af94	-0.013774771
91	0x3cdce4e5	0.026964614
92	0x3cc1f694	0.023677148
93	0xbdef8b63	-0.11696508
94	0x3d8b8310	0.068121076
95	0xbd7d6927	-0.06186786
96	0xbc9a0cd2	-0.018804941
97	0x3db84e41	0.08999301
98	0x3cb6b3e8	0.022302583
99	0xbcd74ec5	-0.026282677

fc3.weight f4 [2, 100]
0	0x3d5c034f	0.053714093
1	0x3ead7cc2	0.33884245
2	0xbe2af5f1	-0.16695382
3	0xbe00ef9b	-0.12591402
4	0xbdeee1a7	-0.116641335
5	0x3d76addb	0.060224395
6	0x3e08ce53	0.13359956
7	0xbe1eba01	-0.15500642
8	0xbe04453b	-0.12917034
9	0xbe4ba563	-0.19887309
10	0xbe6cea09	-0.23136152
11	0x3cecf15d	0.028923685
12	0x3e31f4ce	0.17378542
13	0x3e37d029	0.179505
14	0x3d87fc7c	0.066399544
15	0xb99465b7	-0.00028304543
16	0xbe06eaa2	-0.13175443
17	0xbe1b9e75	-0.15197165
18	0x3c8bf67e	0.01708531
19	0xbba30257	-0.004974644
20	0xbcefb33a	-0.029260267
21	0xbde59336	-0.11209719
22	0x3e417d15	0.18895371
23	0xbcbd8a1e	-0.023137148
24	0xbe4ae261	-0.19812919
25	0x3e4674ca	0.19380489
26	0x3dd67352	0.10471214
27	0x3e419167	0.18903123
28	0xbe5c8aa4	-0.21537262
29	0x3e2b1cfb	0.16710274
30	0x3cc4bdbd	0.024016256
31	0xbe380fa1	-0.17974712
32	0xbe931bee	-0.28732246
33	0xbe5b139e	-0.21394202
34	0xbe531cfa	-0.20616522
35	0xbe364de4	-0.1780315
36	0xbd38036e	-0.044925146
37	0xbc831e28	-0.01600559
38	0x3eb158d1	0.34638074
39	0x3de49250	0.111607194
40	0x3e004189	0.12525
41	0xbdd66432	-0.104683295
42	0xbe05a08c	-0.13049525
43	0xbe639f58	-0.22228754
44	0xbe6ea55d	-0.23305269
45	0x3a3cacf5	0.00071974035
46	0xbe4ce3d0	-0.20008779
47	0x3db23310	0.08701146
48	0xbddfda89	-0.10930354
49	0x3e9011ae	0.2813849
50	0x3e16d1bd	0.14728446
51	0x3dd2783b	0.102768384
52	0xbd8b375b	-0.067976676
53	0x3d1cceae	0.038283043
54	0xbe2935ce	-0.16524431
55	0x3d94c6e1	0.07264496
56	0xbd85ae45	-0.0652738
57	0x3e69031c	0.22755092
58	0x3c86cb52	0.016454373
59	0x3b31beab	0.0027121704
60	0xbe89a8b9	-0.26886538
61	0x3de9a92e	0.114092216
62	0xbe8314b4	-0.25601733
63	0x3cf67ca4	0.03008873
64	0x3e4d06a7	0.20022069
65	0xbd7f1bda	-0.06228242
66	0xbe559d0b	-0.20860688
67	0x3eb2cdc6	0.34922618
68	0x3d26b2d3	0.040697884
69	0x3e5301ea	0.20606199
70	0xbe460346	-0.19337186
71	0x3e783161	0.24237587
72	0xbcfbcf23	-0.030738419
73	0x3db62714	0.08894172
74	0xbd94a4c7	-0.07257991
75	0xbd8d1aea	-0.06889899
76	0xbc9e6a7c	-0.019337885
77	0xbe0fbc55	-0.14036687
78	0x3ec18684	0.3779794
79	0x3eb3dba8	0.35128522
80	0x3d1e24fb	0.038609486
81	0x3dc03e32	0.09386863
82	0x3df82168	0.12115747
83	0x3de58644	0.1120725
84	0x3ef21d00	0.4728775
85	0xbe4f693e	-0.2025499
86	0xbe9697f4	-0.29412806
87	0xbe33f7d0	-0.17575002
88	0xbe1c254a	-0.152486
89	0x3e072709	0.13198484
90	0xbc11b80c	-0.008893978
91	0x3e8fe16b	0.28101668
92	0xbdd11970	-0.1020993
93	0xbcaa6c1a	-0.0208035
94	0xbdb41b36	-0.087942526
95	0x3e958159	0.29200247
96	0xbe3b3b9d	-0.1828446
97	0xbdbc9436	-0.092079565
98	0x3ca32ace	0.019917872
99	0xbe18e53e	-0.14931199
100	0x3eed0d89	0.4629939
101	0xbd005cd8	-0.031338543
102	0xbddec171	-0.1087674
103	0x3e2c15fc	0.16805261
104	0xbcb5fa08	-0.02221395
105	0x3eeec184	0.46632016
106	0x3df7bc23	0.12096431
107	0x3edefb74	0.43551219
108	0x3e20ffce	0.15722582
109	0x3e63cf2e	0.22247002
110	0x3e0a9ca6	0.13536319
111	0xbe6953c1	-0.22785856
112	0x3d1fda6d	0.039026666
113	0x3d92652d	0.07148204
114	0xbdbda98b	-0.092608534
115	0xbe8ce100	-0.2751541
116	0x3db45d6e	0.08806883
117	0x3dc3a9a2	0.09553839
118	0xbe909368	-0.28237462
119	0x3ee04eae	0.43810028
120	0x3f110904	0.5665438
121	0xbe22cc8a	-0.15898338
122	0x3c970aaf	0.018437712
123	0xbe5502bc	-0.20801824
124	0x3ba11db0	0.004916869
125	0x3dc8d0ec	0.09805474
126	0xbc6a05f6	-0.014283648
127	0x3cadfdeb	0.021239242
128	0xbde98b66	-0.11403541
129	0x3de7986d	0.1130837
130	0xbe4aca48	-0.19803727
131	0xbdaf0bca	-0.085471705
132	0xbdf4d05e	-0.119538054
133	0xbdbb6cf2	-0.09151639
134	0xbcf70ed5	-0.03015844
135	0xbc0194fb	-0.007909055
136	0xbe2aa8d9	-0.16665973
137	0xbec4acf2	-0.38413197
138	0xbe52811a	-0.20557061
139	0x3e4f4c4b	0.20243947
140	0xbdc48ddd	-0.09597371
141	0xbe1d42f5	-0.15357573
142	0xbcfb2510	-0.030657321
143	0xbdefdc5c	-0.11711952
144	0xbc967ee6	-0.018371057
145	0xbe6c6c4c	-0.23088187
146	0xbdba8e1d	-0.09109137
147	0xbdccf85d	-0.10008309
148	0x3a93c9ee	0.001127539
149	0xbd3488a5	-0.044075627
150	0x3f02f896	0.5116056
151	0x3eeaf6e5	0.4589149
152	0xbe9a4947	-0.3013403
153	0xbe900654	-0.28129828
154	0xbe70b835	-0.2350777
155	0x3f08f1e9	0.53494126
156	0x3ec16dd8	0.37779117
157	0xbc37bf5f	-0.01121506
158	0x3eab4fea	0.33459407
159	0xbe64dcce	-0.22349855
160	0xbc55cf45	-0.013049905
161	0x3c91db07	0.017804636
162	0xbd550c9c	-0.05201398
163	0x3e7c3fec	0.2463376
164	0x3c3ab66c	0.011396032
165	0x3edab98a	0.4271968
166	0x3c002647	0.007821626
167	0xbe992bde	-0.2991628
168	0xbdd5b9d5	-0.10435835
169	0xbe04d616	-0.12972292
170	0x3d95a3fc	0.07306668
171	0x3e21cc71	0.15800644
172	0x3eb840ff	0.35987088
173	0xbcaf3daa	-0.021391708
174	0xbe559098	-0.2085594
175	0xbdb31e10	-0.08745968
176	0xbe4f94f3	-0.20271663
177	0x3e1afd9b	0.15135805
178	0x3d277b8c	0.040889308
179	0x3dfb0ddf	0.12258505
180	0x3ee63bca	0.4496749
181	0xbe87267c	-0.2639655
182	0x3de72f8b	0.11288365
183	0xbca06367	-0.019578649
184	0x3c9e824a	0.019349236
185	0xbd5d76e1	-0.05406845
186	0xbcac9fee	-0.021072354
187	0x3e48462d	0.1955802
188	0x3df8084f	0.1211096
189	0x3e8e65bf	0.27812
190	0xbeb3a503	-0.3508683
191	0x3cdfd124	0.027321406
192	0x3dd660c6	0.10467677
193	0xbea80e39	-0.3282335
194	0xbd913cab	-0.070916496
195	0x3dcfca69	0.101460285
196	0x3e56f290	0.20990968
197	0xbe75ff03	-0.2402306
198	0xbe097c50	-0.13426328
199	0x3cff47e3	0.031162208

fc3.bias f4 [2]
0	0x3da0ef85	0.07858185
1	0x3ce2142b	0.027597507

bn1.weight f4 [128]
0	0x3ec7a1bf	0.3899059
1	0x3f33dc4f	0.7025804
2	0x3ee7a487	0.45242712
3	0x3f1a671a	0.6031357
4	0x3f23952d	0.638995
5	0x3f81b09c	1.0132022
6	0x3f888d4f	1.0668124
7	0x3ec1241c	0.37722862
8	0x3ed939ba	0.42426854
9	0x3f820b48	1.0159693
10	0x3f40e8cd	0.75355226
11	0x3f215e4c	0.6303451
12	0x3f8586d4	1.0431771
13	0x3f73a7c7	0.9517788
14	0x3f5fcbd9	0.8742042
15	0x3f8cc2f3	1.0996994
16	0x3f393394	0.72344327
17	0x3f1b150a	0.6057898
18	0x3f3911bf	0.72292703
19	0x3f508d47	0.8146557
20	0x3ee82df9	0.45347574
21	0x3f275277	0.65360206
22	0x3f09a26c	0.5376346
23	0x3f855f67	1.041974
24	0x3f4ce850	0.8004198
25	0x3f3f9c56	0.74847925
26	0x3f1f8372	0.62309945
27	0x3ecebf49	0.40380314
28	0x3ee7b8d3	0.45258197
29	0x3f13bdc9	0.57711464
30	0x3f7eab56	0.9948019
31	0x3ecf14c8	0.40445542
32	0x3f257c7c	0.64643073
33	0x3e651ff7	0.22375475
34	0x3f0033ea	0.50079215
35	0x3efe6bfe	0.49691767
36	0x3f2bf69b	0.67173165
37	0x3f15ed89	0.58565575
38	0x3eee87ca	0.46587974
39	0x3ee73d4d	0.45163956
40	0x3f8d9805	1.1062018
41	0x3f8ccfd8	1.1000929
42	0x3f52c549	0.82332283
43	0x3eae2298	0.34010768
44	0x3f8be7d0	1.0930119
45	0x3ed87224	0.42274582
46	0x3f339193	0.70144004
47	0x3f7dfa3b	0.99209946
48	0x3f74d52b	0.9563777
49	0x3f7981b5	0.9746354
50	0x3f39ee61	0.7262936
51	0x3f0a9253	0.54129523
52	0x3ee06cee	0.43833107
53	0x3f262f1a	0.6491562
54	0x3f6f127c	0.9338758
55	0x3f1d952f	0.6155576
56	0x3ef045a3	0.4692813
57	0x3f48962e	0.78354156
58	0x3f549e89	0.83054405
59	0x3f116b5a	0.5680443
60	0x3f16dd26	0.58931196
61	0x3f56ffc1	0.83984
62	0x3f3fc86e	0.74915206
63	0x3e7a0a15	0.24417908
64	0x3f828cc7	1.0199212
65	0x3e37823d	0.17920776
66	0x3f7814e7	0.96906894
67	0x3f0abdd5	0.5419591
68	0x3f1f001a	0.6210953
69	0x3efb8fa8	0.4913304
70	0x3f8d0550	1.1017246
71	0x3f7abe70	0.97946835
72	0x3f1ce4c6	0.6128658
73	0x3f876f25	1.0580794
74	0xbeacdf4d	-0.33764115
75	0x3f0d0396	0.55083597
76	0x3f383edc	0.71970916
77	0x3f5ee912	0.8707439
78	0x3f215ffb	0.6303708
79	0x3ed3cc60	0.41366863
80	0x3f2390e7	0.6389298
81	0x3e989b1f	0.29805848
82	0x3f0295a7	0.510096
83	0x3f02dff9	0.51123005
84	0x3ea181e7	0.3154442
85	0x3f192ba1	0.598322
86	0x3f3eef71	0.7458411
87	0x3f3ab424	0.7293112
88	0x3f4816f8	0.7816005
89	0x3f177fed	0.59179574
90	0x3f4bccd9	0.7960945
91	0x3ed1d23e	0.40980715
92	0x3f003b43	0.50090426
93	0x3f2ad663	0.6673338
94	0x3f475603	0.7786562
95	0x3f62e01e	0.88623226
96	0x3ec68a88	0.38777566
97	0x3f57a6f9	0.84239155
98	0x3f08f293	0.5349514
99	0x3ee98a27	0.45613214
100	0x3f880e67	1.0629395
101	0x3f906b25	1.1282698
102	0x3f88aaf8	1.0677176
103	0x3f1799f7	0.59219307
104	0x3f092c34	0.53583074
105	0x3f3f5399	0.74736935
106	0x3f5d4dca	0.8644682
107	0x3eec233a	0.46120626
108	0x3f5f9cf1	0.8734885
109	0x3f55b33d	0.8347662
110	0x3f6e4ece	0.93088996
111	0x3f858b4b	1.0433134
112	0x3f9ca62d	1.2238213
113	0x3f27095b	0.6524865
114	0x3ec1fb5d	0.37887087
115	0x3f5044a0	0.81354713
116	0x3f03505e	0.51294506
117	0x3f3fd8f9	0.7494045
118	0x3f6e8d31	0.9318419
119	0x3ead1421	0.3380442
120	0x3f665e39	0.8998752
121	0x3e6b219c	0.2296204
122	0x3f0bfb73	0.54680556
123	0x3ec403cd	0.3828415
124	0x3e9ea48d	0.30984917
125	0x3f90d32d	1.1314446
126	0x3f77f441	0.96857077
127	0x3f3c203f	0.73486704

bn1.bias f4 [128]
0	0x3d68583e	0.05672478
1	0x3e645a7c	0.22300142
2	0xbcac6238	-0.021042928
3	0x3d25f242	0.04051424
4	0xbc977e0f	-0.018492727
5	0xbdd0bd6e	-0.10192381
6	0x3daeacf1	0.0852908
7	0x3d859766	0.065230176
8	0xbd14378c	-0.036185786
9	0x3dadca3e	0.0848584
10	0xb9fa02cf	-0.00047685808
11	0xbdd00c5d	-0.10158608
12	0x3ca0bd2b	0.019621452
13	0x3dc3f85e	0.09568857
14	0x3c3f43c1	0.011673869
15	0xbb549cf5	-0.0032442186
16	0x3d3eeef1	0.04661459
17	0xbd9ae913	-0.07563987
18	0xbbbd4c10	-0.0057768896
19	0xbdf78a29	-0.12086899
20	0xbd3ce739	-0.04611895
21	0xbdb73955	-0.08946482
22	0x3d9c47c6	0.07630877
23	0x3abd6d7a	0.0014452182
24	0x3d1b1bea	0.037868418
25	0x3dbb1331	0.0913452
26	0xbdb32e58	-0.08749074
27	0xbdb75024	-0.089508325
28	0x3dd8935d	0.10574982
29	0xbc84eade	-0.016225275
30	0x3d15acca	0.036541738
31	0xbd4b0b8c	-0.04957156
32	0xbd4c09cb	-0.049814027
33	0xb9d7641d	-0.00041082586
34	0xbc721299	-0.014774942
35	0xbd88e4d6	-0.06684272
36	0xbcd507c1	-0.026004674
37	0x3d791626	0.060812138
38	0xbd936263	-0.071965
39	0x3d286b2f	0.041117843
40	0x3cbb70cf	0.02288094
41	0xbddea786	-0.10871796
42	0x3dd5987d	0.104294755
43	0xbc0850b6	-0.008320024
44	0x3db6f771	0.089339145
45	0xbdb063e2	-0.08612801
46	0xbaaa19a9	-0.0012977618
47	0xbd13bf6d	-0.03607123
48	0xbd00e0fd	-0.031464566
49	0x3d92d30d	0.07169161
50	0xbd7873ec	-0.060657427
51	0xbb5bbf5c	-0.0033530807
52	0x3d9f4c3f	0.07778215
53	0x3d58a9e5	0.0528964
54	0xbc7ac66e	-0.015306098
55	0xbce1bf23	-0.027556961
56	0xbd0e07b7	-0.034675326
57	0xbd19333d	-0.03740238
58	0x3dd8fefa	0.10595508
59	0x3c51c971	0.012804375
60	0xbc722fa8	-0.01478187
61	0x3e347fc1	0.17626859
62	0x3d74b8dc	0.05974661
63	0x3d22678d	0.039649535
64	0xbd7b40db	-0.061341148
65	0x3bde597c	0.0067855697
66	0xbd484b17	-0.048899736
67	0xbd517643	-0.051138174
68	0xbda53d65	-0.08068351
69	0xbdb3278b	-0.087477766
70	0xbd262425	-0.040561814
71	0x3df88483	0.121346496
72	0xbbbd2595	-0.0057723024
73	0x3db53096	0.08847158
74	0xbce49f2b	-0.027907928
75	0xbdd8594c	-0.10563907
76	0xbdacf8cd	-0.084458925
77	0x3d4f0417	0.05054101
78	0x3d06c376	0.03290125
79	0xbce225b1	-0.027605863
80	0xbb8ced61	-0.0043007587
81	0xbdb0a49d	-0.086251475
82	0x3c867c93	0.016416823
83	0xbc049612	-0.00809242
84	0xbd9355e2	-0.07194115
85	0x3d762d69	0.0601019
86	0x3d1200e8	0.035645396
87	0x3d96915d	0.073519446
88	0xbd0d07ad	-0.03443115
89	0xbd6d9c91	-0.05801064
90	0xbd894ad0	-0.067037225
91	0xbdd12708	-0.10212523
92	0x3d6fb114	0.058518484
93	0x3e03a476	0.12855706
94	0x3e05ff89	0.1308576
95	0x3dc68146	0.09692626
96	0xbd63587d	-0.05550431
97	0xbddccf1e	-0.10781692
98	0xbd3e685e	-0.04648625
99	0x3da1fdf4	0.07909766
100	0xbdcb7223	-0.09933879
101	0x3db4d304	0.088293105
102	0x3ce81849	0.028331893
103	0x3d8c0735	0.06837312
104	0xbd0c670b	-0.034277957
105	0x3ade5dd5	0.001696522
106	0xbdfb5168	-0.122713864
107	0xbdc71e62	-0.09722592
108	0xba902300	-0.0010996759
109	0x3d9f0eea	0.077665165
110	0xbcc8bc90	-0.024503976
111	0xbcc94fa4	-0.024574108
112	0x3e3d4b22	0.18485692
113	0x3e2192a6	0.15778598
114	0xbdf3159c	-0.11869356
115	0xbe00e749	-0.12588228
116	0xbd7e5829	-0.062095795
117	0xbdce024d	-0.100590326
118	0xbd344d25	-0.044018883
119	0x3d94639d	0.07245562
120	0x3d41815d	0.04724251
121	0xbde3639f	-0.111029856
122	0x3e0181d4	0.12647182
123	0x3c5acf62	0.013355108
124	0x3bab179e	0.0052213212
125	0x3e166d82	0.14690211
126	0xbcc9fec3	-0.024657613
127	0x3d385b85	0.045009155

bn1.running_mean f4 [128]
0	0x3d32b000	0.043624878
1	0x3d68d8b9	0.056847308
2	0x3eade3c8	0.33962846
3	0x3e1c2d5e	0.15251681
4	0x3b700a46	0.0036627217
5	0x3f26ce09	0.65158135
6	0x3fafd2c9	1.3736202
7	0x3f8855e0	1.0651207
8	0x3ee04902	0.438057
9	0x3ebe1118	0.37122416
10	0x3eb642d2	0.35597855
11	0x3e03193c	0.12802595
12	0x3e8a015d	0.26954165
13	0x3d4dec76	0.050274335
14	0x3f493c43	0.7860758
15	0x3e9ee81b	0.31036457
16	0x3e85c7ab	0.26128897
17	0x3e235665	0.15950926
18	0x3f5944af	0.8487043
19	0x3d2d4d1f	0.042309877
20	0x3de43c89	0.11144359
21	0x3ff18c40	1.8870926
22	0x3eb639a1	0.35590842
23	0x4006eced	2.1082108
24	0x3d98bce8	0.07457906
25	0x3e040ede	0.12896296
26	0x3f7d643b	0.98981065
27	0x3f8915c4	1.0709767
28	0x3f1a2fd4	0.6022923
29	0x3d8029c0	0.06257963
30	0x3e099115	0.1343425
31	0x3f171ac1	0.590252
32	0x3ec1aa19	0.37825087
33	0x3f7758c4	0.9661982
34	0x3f39ceb2	0.72581017
35	0x3dcbd114	0.09951988
36	0x3d9d55d2	0.076823846
37	0x3d8b271f	0.06794571
38	0x3f21fbb0	0.6327467
39	0x3d891202	0.06692888
40	0x3efbb1c5	0.49159065
41	0x3f42fa44	0.76163125
42	0x3f31bf2f	0.6943235
43	0x3e47966f	0.1949098
44	0x3d192c74	0.03739591
45	0x3ea954d0	0.3307252
46	0x3e3a4d02	0.18193439
47	0x3e0cf884	0.13766676
48	0x3cc2e4b4	0.023790695
49	0x3eff75cf	0.49894568
50	0x3c481b59	0.012213551
51	0x3c9d6de2	0.019217435
52	0x3d7b1cbc	0.0613067
53	0x401adbc3	2.4196632
54	0x3d9556eb	0.07291969
55	0x3d99d4d0	0.07511294
56	0x3d599160	0.053117156
57	0x3f7fbbff	0.99896234
58	0x3e1e1656	0.15438208
59	0x3eaeb6dd	0.3412389
60	0x3d0cb4ca	0.0343521
61	0x3f7b4cfa	0.9816433
62	0x3f78994a	0.971089
63	0x3e949858	0.2902248
64	0x3f3507a1	0.70714766
65	0x40620ca5	3.5320218
66	0x3e5944b7	0.21217619
67	0x3d1107a5	0.03540768
68	0x3ef54e0e	0.47911114
69	0x3edbb7a4	0.42913544
70	0x3d565e9a	0.052336313
71	0x3cf503f6	0.029909115
72	0x3f93986c	1.153089
73	0x3eb48b0a	0.35262328
74	0x3e4d0a5a	0.2002348
75	0x3d51c225	0.05121054
76	0x3ea02027	0.3127453
77	0x3fc8cca5	1.5687453
78	0x3f7f6348	0.99760866
79	0x3e851361	0.25991347
80	0x3f142e3f	0.57883066
81	0x3fbf5f8d	1.4951035
82	0x3ed4745a	0.4149502
83	0x3f209cce	0.62739265
84	0x3f8eb49d	1.1148869
85	0x3ea65e0d	0.3249363
86	0x3e574714	0.21023208
87	0x3e5a43b1	0.21314885
88	0x3e1f480c	0.15554827
89	0x3df0c0cf	0.11755525
90	0x3f917b82	1.1365817
91	0x3f0c0bd0	0.54705524
92	0x3f3922de	0.7231883
93	0x3f848982	1.0354464
94	0x3faac29a	1.3340638
95	0x3f1cedef	0.6130056
96	0x3f740ee3	0.95335215
97	0x3f0d5b19	0.5521713
98	0x3eb2ea86	0.34944552
99	0x3f36524f	0.7121934
100	0x3e02f2b4	0.12787896
101	0x3fee36e0	1.8610497
102	0x3ebff4b1	0.37491372
103	0x3f405ea5	0.75144416
104	0x401e4c37	2.4734018
105	0x3fcba152	1.5908606
106	0x3ea9703b	0.33093438
107	0x3f96093b	1.1721567
108	0x3e7f8438	0.24952781
109	0x3d43c1c0	0.047792196
110	0x3d8ca2a4	0.06866959
111	0x3ddf1be6	0.10893993
112	0x40176f86	2.3661819
113	0x3e615443	0.220048
114	0x3ef4986e	0.47772545
115	0x3e9512d8	0.2911594
116	0x3eec83f0	0.4619441
117	0x3dd46d06	0.10372357
118	0x3d90eff0	0.070770144
119	0x3d0e1774	0.034690335
120	0x3f30ccbe	0.6906241
121	0x4021dbf6	2.5290504
122	0x3e31ad3b	0.17351238
123	0x3c9b0618	0.018923804
124	0x3c8b7f8d	0.017028594
125	0x3eaae9c5	0.33381477
126	0x3f8c9998	1.0984373
127	0x3e5e4d18	0.21709096

bn1.running_var f4 [128]
0	0x3ccffc35	0.025388816
1	0x3d21abb9	0.039470408
2	0x3f14038b	0.57817906
3	0x3e1c180d	0.1524355
4	0x3b276e27	0.0025547834
5	0x3f8a5df3	1.0809921
6	0x3f98098c	1.1877913
7	0x3fd6aa12	1.6770651
8	0x3eac1a6b	0.33613905
9	0x3ee553e7	0.44790575
10	0x3e998cc9	0.29990223
11	0x3db78543	0.089609645
12	0x3e8cf625	0.27531543
13	0x3d230543	0.03979994
14	0x3fb95cb8	1.448142
15	0x3e801c97	0.25021812
16	0x3e85ec66	0.2615692
17	0x3e15ab3a	0.14616099
18	0x3fc4a6ff	1.5363463
19	0x3d1d1503	0.038350116
20	0x3daeac19	0.08528919
21	0x4055c6fd	3.3402703
22	0x3e5a20f7	0.21301638
23	0x3f31f47c	0.6951368
24	0x3da81de8	0.08208829
25	0x3d87cdd3	0.06631055
26	0x3fbf4ea3	1.4945873
27	0x402a0a79	2.6568892
28	0x3eb22819	0.34796217
29	0x3d1dc7de	0.038520686
30	0x3e081611	0.13289668
31	0x3f76baac	0.9637859
32	0x3eae0f29	0.3399594
33	0x3fd87474	1.6910539
34	0x3f2174b5	0.63068706
35	0x3df585b5	0.11988393
36	0x3d79fd9a	0.06103287
37	0x3d00b53c	0.03142284
38	0x3f8feafb	1.1243585
39	0x3d3d14f6	0.046162568
40	0x3f5e251c	0.86775374
41	0x3e87587b	0.26434693
42	0x3fa5c1b3	1.2949737
43	0x3ed0fe7f	0.40819165
44	0x3d0be133	0.034150314
45	0x3ed1ee46	0.410021
46	0x3e316251	0.17322661
47	0x3d7793a5	0.06044354
48	0x3ca7865a	0.020449806
49	0x3f2119a4	0.6292975
50	0x3be81d56	0.0070835752
51	0x3c2e6c6e	0.010645969
52	0x3d295e15	0.04134949
53	0x407e1f90	3.9706764
54	0x3d870b5b	0.06593963
55	0x3d92cb1b	0.071676455
56	0x3d62df43	0.0553887
57	0x4041c36b	3.0275524
58	0x3e08b260	0.13349295
59	0x3f482bf1	0.7819205
60	0x3cccbe18	0.024992988
61	0x3e75f993	0.24020986
62	0x3fc41c61	1.532116
63	0x3e9971f2	0.29969746
64	0x3f9e288a	1.2356122
65	0x405270af	3.2881277
66	0x3e0dddae	0.13854095
67	0x3cd86ab1	0.026418062
68	0x3f218f56	0.6310934
69	0x3f8ae81b	1.0852083
70	0x3d6b24b5	0.057408053
71	0x3c7ddaed	0.0154940905
72	0x3fe5b423	1.7945598
73	0x3e380aba	0.17972842
74	0x3e48221c	0.19544262
75	0x3cf76f07	0.03020431
76	0x3e46008f	0.1933615
77	0x40868c67	4.204639
78	0x40046311	2.0685465
79	0x3e5f41b0	0.21802402
80	0x3f3d9c4e	0.7406663
81	0x4072c84b	3.793475
82	0x3ec392e2	0.38198
83	0x3ea50fb1	0.32238534
84	0x40042717	2.0648859
85	0x3f43f095	0.76538974
86	0x3e0a11b2	0.13483313
87	0x3def110f	0.116731755
88	0x3e8702de	0.26369375
89	0x3e23c5a9	0.1599337
90	0x3fdc26c5	1.7199332
91	0x3f7bdba0	0.98381996
92	0x3ffa7072	1.9565566
93	0x3f789721	0.97105604
94	0x3fbd22a1	1.4776193
95	0x3ee0293c	0.4378146
96	0x3fc7b75f	1.5602835
97	0x3f223190	0.63356876
98	0x3f1a0420	0.60162544
99	0x3ed5ebb4	0.4178139
100	0x3e0026ab	0.1251475
101	0x3fd4d5e5	1.6627775
102	0x3f031a66	0.51212156
103	0x3fbcfd02	1.4764712
104	0x408aea24	4.3410816
105	0x402a1864	2.6577387
106	0x3e53ef6d	0.20696802
107	0x4000ab4d	2.0104554
108	0x3e91d102	0.28479773
109	0x3d08f040	0.033432245
110	0x3d6b2621	0.05740941
111	0x3d4c3751	0.04985744
112	0x3fa22e68	1.2670412
113	0x3dabda70	0.08391273
114	0x3f6cf152	0.92555726
115	0x3e7fb6bc	0.24972051
116	0x3fac9315	1.3482386
117	0x3db8a521	0.09015871
118	0x3caef6bf	0.021357892
119	0x3d00bd5a	0.03143058
120	0x3f2d65a3	0.6773321
121	0x404fa287	3.244295
122	0x3eaa9af9	0.3332136
123	0x3c55023b	0.01300102
124	0x3c8b29a3	0.016987627
125	0x3e448e7d	0.1919498
126	0x3fbddabd	1.4832379
127	0x3e2503d0	0.16114736

bn2.weight f4 [100]
0	0x3f72a93e	0.94789493
1	0x3d92d608	0.071697295
2	0x3e4d3638	0.20040214
3	0x3ed15f6e	0.4089312
4	0x3e76539c	0.24055332
5	0x3e9f3b4a	0.3109992
6	0x3ea2cf84	0.31798947
7	0x3e860c56	0.26181287
8	0x3d4d8400	0.050174713
9	0x3e219f50	0.15783429
10	0x3f405991	0.7513667
11	0x3ef03e8e	0.46922725
12	0x3ea83dc8	0.32859635
13	0x3ec8c324	0.3921138
14	0x3f76bd7a	0.9638287
15	0x3f4131d2	0.75466645
16	0x3f305125	0.68873817
17	0x3ed93dde	0.42430013
18	0x3f61775b	0.88072747
19	0x3f7dddcb	0.99166554
20	0x3eaa54b8	0.3326776
21	0x3ee4f724	0.44719803
22	0x3f59ce1e	0.85080135
23	0x3e9e3776	0.30901688
24	0x3f7abca2	0.9794408
25	0x3d54ce70	0.051954687
26	0x3d119770	0.035544813
27	0x3f07e972	0.53090584
28	0x3ef1fe94	0.4726454
29	0x3f001c40	0.50043106
30	0x3f097057	0.5368704
31	0x3f24edaf	0.64425176
32	0x3e2e69d4	0.17032558
33	0x3ed93f5a	0.42431146
34	0x3ea8b766	0.32952422
35	0x3dd99298	0.10623664
36	0x3edb6f0c	0.4285816
37	0x3f2027b0	0.6256056
38	0x3f7741b5	0.96584636
39	0x3edf0fc6	0.43566722
40	0x3f73b8d0	0.95203876
41	0x3ed79930	0.4210906
42	0x3f2eed76	0.68331087
43	0x3f22d590	0.6360712
44	0x3e90c41a	0.28274614
45	0x3eb5d01c	0.35510337
46	0x3f56f9bb	0.8397481
47	0x3d37a5c0	0.044835806
48	0x3d3c0d60	0.045911193
49	0x3f535a6e	0.8255986
50	0x3d5d6150	0.054047883
51	0x3f4c9611	0.79916483
52	0x3f129979	0.5726543
53	0x3f5c5f11	0.8608256
54	0x3f30719e	0.68923366
55	0x3e407aa8	0.1879679
56	0x3f6d2c1c	0.9264543
57	0x3e88c30a	0.26711303
58	0x3f1dbff5	0.6162103
59	0x3f066852	0.5250293
60	0x3f7d6cd9	0.98994213
61	0x3f3a9e78	0.72898054
62	0x3db54b20	0.088522196
63	0x3e656050	0.22400022
64	0x3e96cd46	0.29453486
65	0x3f4ce350	0.8003435
66	0x3f1ccec8	0.61253023
67	0x3d7ab8a0	0.06121123
68	0x3f316a7d	0.69303113
69	0x3ec6b246	0.38807887
70	0x3d848480	0.06470585
71	0x3f64bea2	0.8935338
72	0x3f307749	0.68932015
73	0x3ec365e0	0.38163662
74	0x3f491dd5	0.78561145
75	0x3ef3c06a	0.47607738
76	0x3f3ca1ca	0.7368437
77	0x3f559ec7	0.834454
78	0x3f5726b0	0.8404341
79	0x3f57daeb	0.8431842
80	0x3f500837	0.81262535
81	0x3f149414	0.5803845
82	0x3f1276f0	0.57212734
83	0x3f786f7d	0.9704512
84	0x3ed42c9c	0.41440284
85	0x3f285805	0.6575931
86	0x3eb570ee	0.3543772
87	0x3e391894	0.18075782
88	0x3ecf2acc	0.4046234
89	0x3f5d6ff9	0.8649898
90	0x3eb44e18	0.3521583
91	0x3f203ea7	0.625956
92	0x3f48d19b	0.7844483
93	0x3ee1e262	0.4411803
94	0x3f3fa521	0.7486134
95	0x3f13e6df	0.57774156
96	0x3f3b0eb6	0.7306932
97	0x3f6a1032	0.9143096
98	0x3f375130	0.7160826
99	0x3eff17a6	0.4982273

bn2.bias f4 [100]
0	0x00000000	0.0
1	0x00000000	0.0
2	0x00000000	0.0
3	0x00000000	0.0
4	0x00000000	0.0
5	0x00000000	0.0
6	0x00000000	0.0
7	0x00000000	0.0
8	0x00000000	0.0
9	0x00000000	0.0
10	0x00000000	0.0
11	0x00000000	0.0
12	0x00000000	0.0
13	0x00000000	0.0
14	0x00000000	0.0
15	0x00000000	0.0
16	0x00000000	0.0
17	0x00000000	0.0
18	0x00000000	0.0
19	0x00000000	0.0
20	0x00000000	0.0
21	0x00000000	0.0
22	0x00000000	0.0
23	0x00000000	0.0
24	0x00000000	0.0
25	0x00000000	0.0
26	0x00000000	0.0
27	0x00000000	0.0
28	0x00000000	0.0
29	0x00000000	0.0
30	0x00000000	0.0
31	0x00000000	0.0
32	0x00000000	0.0
33	0x00000000	0.0
34	0x00000000	0.0
35	0x00000000	0.0
36	0x00000000	0.0
37	0x00000000	0.0
38	0x00000000	0.0
39	0x00000000	0.0
40	0x00000000	0.0
41	0x00000000	0.0
42	0x00000000	0.0
43	0x00000000	0.0
44	0x00000000	0.0
45	0x00000000	0.0
46	0x00000000	0.0
47	0x00000000	0.0
48	0x00000000	0.0
49	0x00000000	0.0
50	0x00000000	0.0
51	0x00000000	0.0
52	0x00000000	0.0
53	0x00000000	0.0
54	0x00000000	0.0
55	0x00000000	0.0
56	0x00000000	0.0
57	0x00000000	0.0
58	0x00000000	0.0
59	0x00000000	0.0
60	0x00000000	0.0
61	0x00000000	0.0
62	0x00000000	0.0
63	0x00000000	0.0
64	0x00000000	0.0
65	0x00000000	0.0
66	0x00000000	0.0
67	0x00000000	0.0
68	0x00000000	0.0
69	0x00000000	0.0
70	0x00000000	0.0
71	0x00000000	0.0
72	0x00000000	0.0
73	0x00000000	0.0
74	0x00000000	0.0
75	0x00000000	0.0
76	0x00000000	0.0
77	0x00000000	0.0
78	0x00000000	0.0
79	0x00000000	0.0
80	0x00000000	0.0
81	0x00000000	0.0
82	0x00000000	0.0
83	0x00000000	0.0
84	0x00000000	0.0
85	0x00000000	0.0
86	0x00000000	0.0
87	0x00000000	0.0
88	0x00000000	0.0
89	0x00000000	0.0
90	0x00000000	0.0
91	0x00000000	0.0
92	0x00000000	0.0
93	0x00000000	0.0
94	0x00000000	0.0
95	0x00000000	0.0
96	0x00000000	0.0
97	0x00000000	0.0
98	0x00000000	0.0
99	0x00000000	0.0

bn2.running_mean f4 [100]
0	0x00000000	0.0
1	0x00000000	0.0
2	0x00000000	0.0
3	0x00000000	0.0
4	0x00000000	0.0
5	0x00000000	0.0
6	0x00000000	0.0
7	0x00000000	0.0
8	0x00000000	0.0
9	0x00000000	0.0
10	0x00000000	0.0
11	0x00000000	0.0
12	0x00000000	0.0
13	0x00000000	0.0
14	0x00000000	0.0
15	0x00000000	0.0
16	0x00000000	0.0
17	0x00000000	0.0
18	0x00000000	0.0
19	0x00000000	0.0
20	0x00000000	0.0
21	0x00000000	0.0
22	0x00000000	0.0
23	0x00000000	0.0
24	0x00000000	0.0
25	0x00000000	0.0
26	0x00000000	0.0
27	0x00000000	0.0
28	0x00000000	0.0
29	0x00000000	0.0
30	0x00000000	0.0
31	0x00000000	0.0
32	0x00000000	0.0
33	0x00000000	0.0
34	0x00000000	0.0
35	0x00000000	0.0
36	0x00000000	0.0
37	0x00000000	0.0
38	0x00000000	0.0
39	0x00000000	0.0
40	0x00000000	0.0
41	0x00000000	0.0
42	0x00000000	0.0
43	0x00000000	0.0
44	0x00000000	0.0
45	0x00000000	0.0
46	0x00000000	0.0
47	0x00000000	0.0
48	0x00000000	0.0
49	0x00000000	0.0
50	0x00000000	0.0
51	0x00000000	0.0
52	0x00000000	0.0
53	0x00000000	0.0
54	0x00000000	0.0
55	0x00000000	0.0
56	0x00000000	0.0
57	0x00000000	0.0
58	0x00000000	0.0
59	0x00000000	0.0
60	0x00000000	0.0
61	0x00000000	0.0
62	0x00000000	0.0
63	0x00000000	0.0
64	0x00000000	0.0
65	0x00000000	0.0
66	0x00000000	0.0
67	0x00000000	0.0
68	0x00000000	0.0
69	0x00000000	0.0
70	0x00000000	0.0
71	0x00000000	0.0
72	0x00000000	0.0
73	0x00000000	0.0
74	0x00000000	0.0
75	0x00000000	0.0
76	0x00000000	0.0
77	0x00000000	0.0
78	0x00000000	0.0
79	0x00000000	0.0
80	0x00000000	0.0
81	0x00000000	0.0
82	0x00000000	0.0
83	0x00000000	0.0
84	0x00000000	0.0
85	0x00000000	0.0
86	0x00000000	0.0
87	0x00000000	0.0
88	0x00000000	0.0
89	0x00000000	0.0
90	0x00000000	0.0
91	0x00000000	0.0
92	0x00000000	0.0
93	0x00000000	0.0
94	0x00000000	0.0
95	0x00000000	0.0
96	0x00000000	0.0
97	0x00000000	0.0
98	0x00000000	0.0
99	0x00000000	0.0

bn2.running_var f4 [100]
0	0x3f800000	1.0
1	0x3f800000	1.0
2	0x3f800000	1.0
3	0x3f800000	1.0
4	0x3f800000	1.0
5	0x3f800000	1.0
6	0x3f800000	1.0
7	0x3f800000	1.0
8	0x3f800000	1.0
9	0x3f800000	1.0
10	0x3f800000	1.0
11	0x3f800000	1.0
12	0x3f800000	1.0
13	0x3f800000	1.0
14	0x3f800000	1.0
15	0x3f800000	1.0
16	0x3f800000	1.0
17	0x3f800000	1.0
18	0x3f800000	1.0
19	0x3f800000	1.0
20	0x3f800000	1.0
21	0x3f800000	1.0
22	0x3f800000	1.0
23	0x3f800000	1.0
24	0x3f800000	1.0
25	0x3f800000	1.0
26	0x3f800000	1.0
27	0x3f800000	1.0
28	0x3f800000	1.0
29	0x3f800000	1.0
30	0x3f800000	1.0
31	0x3f800000	1.0
32	0x3f800000	1.0
33	0x3f800000	1.0
34	0x3f800000	1.0
35	0x3f800000	1.0
36	0x3f800000	1.0
37	0x3f800000	1.0
38	0x3f800000	1.0
39	0x3f800000	1.0
40	0x3f800000	1.0
41	0x3f800000	1.0
42	0x3f800000	1.0
43	0x3f800000	1.0
44	0x3f800000	1.0
45	0x3f800000	1.0
46	0x3f800000	1.0
47	0x3f800000	1.0
48	0x3f800000	1.0
49	0x3f800000	1.0
50	0x3f800000	1.0
51	0x3f800000	1.0
52	0x3f800000	1.0
53	0x3f800000	1.0
54	0x3f800000	1.0
55	0x3f800000	1.0
56	0x3f800000	1.0
57	0x3f800000	1.0
58	0x3f800000	1.0
59	0x3f800000	1.0
60	0x3f800000	1.0
61	0x3f800000	1.0
62	0x3f800000	1.0
63	0x3f800000	1.0
64	0x3f800000	1.0
65	0x3f800000	1.0
66	0x3f800000	1.0
67	0x3f800000	1.0
68	0x3f800000	1.0
69	0x3f800000	1.0
70	0x3f800000	1.0
71	0x3f800000	1.0
72	0x3f800000	1.0
73	0x3f800000	1.0
74	0x3f800000	1.0
75	0x3f800000	1.0
76	0x3f800000	1.0
77	0x3f800000	1.0
78	0x3f800000	1.0
79	0x3f800000	1.0
80	0x3f800000	1.0
81	0x3f800000	1.0
82	0x3f800000	1.0
83	0x3f800000	1.0
84	0x3f800000	1.0
85	0x3f800000	1.0
86	0x3f800000	1.0
87	0x3f800000	1.0
88	0x3f800000	1.0
89	0x3f800000	1.0
90	0x3f800000	1.0
91	0x3f800000	1.0
92	0x3f800000	1.0
93	0x3f800000	1.0
94	0x3f800000	1.0
95	0x3f800000	1.0
96	0x3f800000	1.0
97	0x3f800000	1.0
98	0x3f800000	1.0
99	0x3f800000	1.0
